Assets/Cerebro/3DBall-500016.onnx (onnx, 76085 bytes, 7 tensors)

network_body._body_endoder.seq_layers.0.weight f4 [128, 8]
000000 aa f5 93 be 3c 1b de bd 41 e0 63 3e cd c1 59 3b
       -0.28898364 -0.10845038 0.22253515 0.0033227087
000010 86 33 c9 bd 54 fc f6 3d 53 8e 01 be 0c a7 7b bc
       -0.098242804 0.120598465 -0.12651949 -0.015359651
000020 92 83 a4 be 16 20 3d bd 9b 28 13 3f 9b 7b 63 be
       -0.3213163 -0.046173178 0.57483834 -0.2221512
000030 d7 b8 e5 be 78 f5 47 bf cd 08 19 be d0 da 44 be
       -0.44867584 -0.7810893 -0.14944763 -0.19224095
000040 3e 8d f2 be 18 d2 8b 3e 15 98 00 bd cb 69 4f 3d
       -0.47373384 0.27308726 -0.031395037 0.050638
000050 4a 16 43 3e 87 e7 f8 3c 21 2d cf 3e 6c 79 4f 3f
       0.19051471 0.030383838 0.40464118 0.8104465
000060 51 39 50 bf a8 1a 72 3f a9 b8 5c 3f c4 de c1 3e
       -0.8133746 0.94571924 0.8621927 0.3786527
000070 b3 ea ad 3e 72 9b b3 3e cf c6 46 be 9c 30 94 3e
       0.33968124 0.35079533 -0.19411777 0.28943336
000080 c6 a5 65 be 1d 2f c8 3e 66 fe 47 be c5 9a 1a be
       -0.22426519 0.39098445 -0.19530639 -0.15098102
000090 fd c6 5f 3d d2 99 7c be bb d8 04 3f 6b b4 cc 3e
       0.05463313 -0.24668053 0.51893204 0.39981398
0000a0 4b c4 d0 3e b9 b8 ea be bf b4 dc be 2e d1 5f be
       0.4077476 -0.45844057 -0.43106648 -0.2185714
0000b0 83 37 99 3e 5b 8e 5b be 74 8d 77 be 0e d7 dd 3d
       0.29925165 -0.21441023 -0.24175054 0.10832034
0000c0 e0 ec 57 3e 7a 7d 5d 3d 13 ec 48 be 89 ab a1 be
       0.21086454 0.054074742 -0.19621305 -0.31576183
0000d0 a1 0f 03 3d cb 3a 36 3d 37 ef 60 3e f2 86 23 3f
       0.031997327 0.044489663 0.21966253 0.63877785
0000e0 45 6f 05 3f 0a 41 4e 3f eb f6 ad 3e 0b 65 2e 3c
       0.5212291 0.8056799 0.33977446 0.010644208
0000f0 16 10 0e be 3f 2e bc bd f3 c9 a7 3e 5e 59 0d be
       -0.13873324 -0.09188508 0.32771263 -0.13803622
000100 2b cb 8a 3e 9a d7 13 3e 50 26 8e be b3 e3 6a 3f
       0.2710813 0.14437714 -0.27763605 0.9175369
000110 64 2f 03 be af fe b7 3d 29 c9 e1 3e ae e7 28 3e
       -0.12811047 0.08984124 0.44098786 0.16494629
000120 38 4c 86 3c 50 38 32 be cb d5 be be 55 a3 92 3e
       0.016393766 -0.17404294 -0.37272486 0.28640237
000130 20 b4 98 3d 6e 40 62 be 45 89 ca 3e 31 32 e7 be
       0.07456231 -0.2209489 0.39557853 -0.4515548
000140 ff be 48 3e c8 c2 ab 3f 7e eb 97 3d 67 88 10 3f
       0.19604109 1.3418818 0.074179634 0.56458133
000150 5f f7 aa 3d fa 28 5c bd 98 2b fd bd 77 a5 b1 3e
       0.083479635 -0.053750016 -0.123618305 0.34696552
000160 2d 24 a4 be 79 4b 4b be fe 16 1c bd 10 24 0c 3f
       -0.3205885 -0.1985301 -0.038107865 0.54742527
000170 c7 d1 a1 3e 7e 63 a1 be 07 44 46 be c7 24 5d bf
       0.3160536 -0.3152122 -0.19361888 -0.8638424
000180 9d e9 2b be 58 e5 8f 3e bb 41 b6 be fb e8 24 bf
       -0.16788335 0.28104663 -0.35597023 -0.64418
000190 b1 c6 73 3e 28 2b a2 3e 55 3f 12 3e 17 f2 1f be
       0.23806264 0.3167355 0.14281972 -0.15619694
0001a0 44 1f 07 be 86 d8 11 3f 31 16 45 3e 91 48 05 bf
       -0.1319552 0.56971014 0.19246747 -0.5206385
0001b0 60 ed 8a be 18 b1 24 bf 2f 96 ec 3e 73 34 55 be
       -0.27134228 -0.64332724 0.4620833 -0.20820789
0001c0 0d 5b 93 be b4 a2 b5 3e 83 d1 08 bf 1f 06 7d 3e
       -0.28780404 0.35475695 -0.5344469 0.24709366
0001d0 07 10 96 bd 51 c5 fb 3d a9 cf 2f be dd 67 87 3e
       -0.07327276 0.122934945 -0.1716906 0.2644643
0001e0 1e ad 59 3e 48 74 80 3e 9e 67 4e be 8a e4 81 bd
       0.21257445 0.25088716 -0.20156714 -0.063424185
0001f0 b3 49 dd 3e ab 24 c6 be 5e fe d3 3e 56 0f 7f 3d
       0.4322029 -0.3869985 0.41405004 0.062270485
000200 07 6b 5a bf 80 8b 2f bf 1e 7f 56 3e ad 64 c9 be
       -0.8531956 -0.68572235 0.20946929 -0.39334622
000210 c7 c1 b5 3c 13 e9 f1 3d 15 7a 59 3d 1a 7b cd 3e
       0.022187127 0.118120335 0.053094942 0.40132982
000220 e8 8e 2d 3f d3 66 3a bf da db 1e bf 8e ac 3e 3e
       0.6779618 -0.7281315 -0.62054217 0.18620512
000230 bb 87 e0 be 1c 2e 1a bf 37 3c 17 bd c0 f5 4d 3e
       -0.43853554 -0.6022661 -0.03692266 0.20113277
000240 d4 87 00 3f 86 a8 85 be c5 b3 2b 3f 25 ae 2e be
       0.5020726 -0.26105136 0.6707118 -0.17058618
000250 f3 87 28 3e fd 5c a8 3e c7 89 b6 bd be 98 2d 3f
       0.1645811 0.32883444 -0.08912998 0.6781119
000260 5e 32 72 bf 45 a3 2d 3f bb ce 9e 3c 34 3e 94 3f
       -0.94608104 0.67827255 0.019385686 1.1581483
000270 02 59 51 3e 9f 00 8d 3d 4c 1b af 3e bf aa 34 3e
       0.2044411 0.06884884 0.34200513 0.1764326
000280 b6 5b 22 bf cb 27 77 be 75 67 d9 be 92 59 d0 3e
       -0.6342119 -0.24136274 -0.42461744 0.40693337
000290 4f 39 52 bd 83 33 13 bc 01 94 c6 3e cf d5 95 be
       -0.051324185 -0.008984449 0.38784793 -0.29264686
0002a0 9f a7 e2 3e b9 4b f5 be 61 a1 42 bf d6 83 79 be
       0.4426851 -0.47909334 -0.76027495 -0.24366698
0002b0 68 46 21 bf 4b de 57 bf 90 7b 44 be 7d 48 d8 be
       -0.62998056 -0.8432357 -0.1918776 -0.42242804
0002c0 ba b5 2c be 12 a5 2c be cb 40 1c 3f 0b 6d ee 3d
       -0.16866198 -0.16859844 0.61036366 0.11641892
0002d0 9f 7e 93 bc c3 cf 29 3f f9 30 dd 3d 62 77 78 3f
       -0.018004714 0.66332644 0.108003564 0.97057164
0002e0 b4 ee 23 bf c4 d5 22 bf 2d 00 06 3e a2 bb d4 3e
       -0.6403611 -0.6360743 0.13086005 0.41549402
0002f0 42 0c 85 3d d1 4f 2a 3f 15 07 c0 3c 76 d2 e4 3d
       0.064964786 0.6652804 0.023440877 0.11172955
000300 5a b1 10 3f 19 38 fb 3e 93 ee 61 bd 62 a0 a3 3e
       0.56520617 0.49066237 -0.055159163 0.319583
000310 75 87 ca 3e c5 9f 79 3e a5 52 fb 3e 7c 0e e6 be
       0.3955647 0.24377353 0.4908649 -0.44932926
000320 5f f5 1e be 55 e0 33 bf bb 77 89 bc ba bc e6 be
       -0.15523289 -0.7026418 -0.016780725 -0.45065862
000330 0c 5d 6d bd 09 38 04 3e bd d7 13 bd c9 4d 2d 3f
       -0.057950065 0.12912 -0.036094416 0.67696816
000340 a4 59 bb 3e 92 92 6e 3e f0 f9 a9 3d 84 d8 5a 3e
       0.36591828 0.232981 0.08299625 0.21371657
000350 b9 b0 ca 3d 13 0d c5 bc e1 54 d9 bd a4 1f 1d 3f
       0.098969884 -0.024054086 -0.106118925 0.61376405
000360 8b 6f 36 3e de 87 2f 3e 54 f1 03 3f 82 5f 85 3f
       0.17815988 0.17141673 0.5154011 1.0419772
000370 98 1f 08 bf 82 5c 1e be 1c 77 c3 be 42 3b ae 3e
       -0.5317321 -0.15464976 -0.3817681 0.34029585
000380 eb 7f 70 3f 86 d0 b1 be 3f 07 02 bf 8a f3 7e 3e
       0.9394519 -0.34729403 -0.50792307 0.2489759
000390 c7 2c dd 3d 9b 36 c1 be dd 5d bd 3e de 4e 16 bf
       0.10799556 -0.37736973 0.36985675 -0.5871409
0003a0 53 2b a8 3e e9 f8 ea 3d d3 3b e8 b9 20 0a 96 be
       0.32845554 0.11473257 -0.0004429506 -0.293046
0003b0 f1 ff 96 bd 99 7d 38 be 14 dd e6 bd dc 65 56 3e
       -0.07373036 -0.18016662 -0.11272636 0.20937294
0003c0 64 04 28 bf 14 34 d9 3e c6 e8 a3 be 25 ea 8a be
       -0.656317 0.42422545 -0.3201353 -0.27131763
0003d0 63 a5 08 3e a9 f9 b3 3e 32 da 6e 3d 5f 1c 8f be
       0.1334434 0.35151413 0.058313556 -0.27951333
0003e0 c1 e6 e6 3d a9 f3 fa bd 15 d0 b8 3e 27 d5 89 be
       0.112744816 -0.12253506 0.36096254 -0.26920435
0003f0 58 d8 8c be 03 49 16 3c ce a0 81 be 46 98 b1 3d
       -0.27508807 0.009172681 -0.25317997 0.08671622

network_body._body_endoder.seq_layers.0.bias f4 [128]
000000 a9 e2 52 3c df 68 25 bb d6 15 2f 3d 58 2e 41 3d
       0.012871423 -0.002523951 0.042745434 0.047163337
000010 36 ad 86 3d bf ca 40 3c 67 f6 4f bd 29 27 97 3c
       0.06576006 0.011767088 -0.050772097 0.01845129
000020 19 a4 e7 3c 13 fc dc ba 9f 22 aa 3b 81 cf b7 3c
       0.02827649 -0.0016859792 0.0051921154 0.022437813
000030 b8 5e b5 3c 58 42 03 3b 52 64 27 bb 3f ab 33 3d
       0.022139892 0.0020028558 -0.0025541973 0.043864485
000040 27 3b c3 3d ab 86 77 3b dc 9c bc 3c fd 3e cf 3c
       0.09532767 0.0037769477 0.023024015 0.02529859
000050 03 c3 18 3c 83 0a 94 3d 5d ba 68 3d a4 c5 fb 3c
       0.009323838 0.072285675 0.056818355 0.03073389
000060 21 e7 8f 3c f8 4e 57 3d 62 ff 86 3c 69 47 36 bb
       0.017566266 0.052565545 0.016479198 -0.002781356
000070 41 02 46 3d c4 3e fb 3b 82 89 1c 3d 6a 40 77 bc
       0.048341993 0.0076673944 0.038217075 -0.015091041
000080 1e 6f 51 b9 6a 4b f8 3c e7 68 4f 3c df ce bd 3c
       -0.00019973188 0.030309398 0.012659288 0.023169933
000090 40 e0 06 3d 61 a1 23 3c 13 28 59 3d ad e2 31 3d
       0.032928705 0.009987206 0.053016733 0.043429065
0000a0 8e c6 de 3c 0d 1d e0 3c 03 3f e8 bb e0 7f ee b9
       0.027194288 0.027357602 -0.0070875897 -0.00045490172
0000b0 98 64 10 3d d6 75 9d 3b 01 63 63 bc b0 11 c6 3c
       0.035252184 0.004805307 -0.013878585 0.024178356
0000c0 da bd 57 3d 7b 8e 74 3d 1f 5a 44 3d 42 3e 11 bb
       0.05267129 0.059706192 0.04793751 -0.0022162353
0000d0 b6 1a 04 bd 41 d4 75 3c bc b8 0a bb da 4b 31 3c
       -0.032252036 0.015004219 -0.002116724 0.010821307
0000e0 df 4f 87 3d 99 b1 cf 3c 3d 0f c1 3d ef 1b 0b 3d
       0.06607031 0.02535324 0.094267346 0.033962186
0000f0 65 de 4e 3d 62 c1 86 3d f8 b1 41 3d 92 b6 da 3c
       0.05050506 0.065798536 0.047288865 0.026698384
000100 8f 46 96 3d fd e2 9f 3b 00 7a d7 3c 4a 54 fb 3c
       0.07337677 0.004879354 0.026303291 0.03067984
000110 63 e3 1b 3d 59 f6 c0 bc 65 75 3e bd e3 64 22 3d
       0.03805865 -0.023554968 -0.046498675 0.039646994
000120 a9 de 1a bd e1 25 0a 3d d8 3a 94 3d b2 cf a7 bc
       -0.03781 0.03372753 0.07237786 -0.020484779
000130 5a 98 97 3d 08 c3 16 bd 3e 75 3b 3d f0 70 b0 3c
       0.07402106 -0.03680709 0.045766108 0.021538228
000140 93 cd d5 ba c5 3a 1d 3c 77 23 74 3c dd 46 b8 3c
       -0.0016311876 0.009596531 0.014901034 0.022494728
000150 4e 1e 3f 3b 14 a0 7b ba fb fb 75 3c 72 b4 6b 3c
       0.002916235 -0.00095987436 0.01501369 0.014386283
000160 e4 1b 86 3c 78 1d 64 bd bc f0 35 3d cb 46 1a 3c
       0.016370721 -0.055692166 0.044419035 0.009416292
000170 d2 3d 88 3b df 8e da 3b 38 be 8d 3c 1e 04 39 3d
       0.00415776 0.0066698636 0.017302617 0.045169942
000180 6f 84 04 3d a9 c0 6e 3c 48 2d 84 3c fd f0 24 ba
       0.03235286 0.014572301 0.016134873 -0.00062920136
000190 70 9e 04 3b 87 6a 31 3d 44 d8 7c 3d a1 00 ea 3c
       0.0020236038 0.043314483 0.061729684 0.028564753
0001a0 80 f8 05 3d f7 84 0a 3d 88 6c e6 3c 7f 85 fa bb
       0.03270769 0.03381821 0.028127924 -0.0076453085
0001b0 26 a1 5e 3d d2 cc 47 3d da 21 8a 3d b6 22 3b bd
       0.054352902 0.048779316 0.06744738 -0.0456874
0001c0 33 fc b1 bc 5c 6c da 3c cf b3 6a 3d 18 6b 9b 3c
       -0.021726703 0.026662998 0.057300385 0.018971965
0001d0 e1 e0 85 3c 61 f4 64 3d 00 35 3e 3c ae f9 cb ba
       0.016342582 0.05589712 0.011609316 -0.0015562081
0001e0 14 21 09 3d 45 56 fb 3c e4 5c 6c 3d e4 7a 48 3d
       0.03347881 0.030680785 0.057705775 0.048945323
0001f0 5b 86 51 3d 14 38 4f 3d 0a bf 01 bb b9 f6 a0 3b
       0.051153522 0.05059059 -0.0019797706 0.004912224

network_body._body_endoder.seq_layers.2.weight f4 [128, 128]
000000 54 a1 ba bd b5 82 2e bd 79 a8 1b 3d 7d 88 05 3e
       -0.09112802 -0.04260512 0.038002465 0.13040347
000010 98 6d 81 bd 81 34 f8 3d 94 96 e4 3d c2 3e d1 3d
       -0.063197315 0.12119389 0.11161533 0.10217048
000020 11 e1 89 3d d8 4a d8 3d 85 53 17 3c 80 52 2a be
       0.06732381 0.1056115 0.009236221 -0.16633034
000030 eb 46 b2 3d 08 b1 8d bd 72 48 7b 3d cd b7 5d 3d
       0.08704933 -0.06918532 0.061348386 0.054130364
000040 e4 6f 67 3d 52 4e 77 bd 4e 1c c2 bb 39 a9 02 3e
       0.05650319 -0.060377426 -0.0059237843 0.12759866
000050 a5 1e 00 be 93 6a 30 be e8 47 31 3d bc 1d e8 bd
       -0.1251169 -0.17228155 0.043281466 -0.113337964
000060 b2 1e 7c bd 51 28 1e bc f3 b6 27 3d c5 b2 39 bd
       -0.06155271 -0.009653167 0.04094596 -0.045336504
000070 23 02 02 be 35 85 6b 3c 65 8c 55 bd d5 39 84 3d
       -0.12696128 0.014375021 -0.052135844 0.06456343
000080 e6 05 cf bd 13 3e 25 3e db 68 f8 bc 30 b3 87 3d
       -0.10108547 0.1613696 -0.030323436 0.06625974
000090 49 d6 a9 3d 39 73 94 3c 2f b9 a6 3d 18 f0 c8 bc
       0.08292825 0.018121349 0.0814079 -0.024528548
0000a0 75 75 34 3e bf 55 44 3d dc c1 a1 3d 1f b6 c1 bb
       0.17622931 0.047933336 0.07898304 -0.005911603
0000b0 85 be 1e bd 64 6d 15 3e 05 5f 52 bd cd 21 f6 bd
       -0.038755912 0.1459251 -0.05136015 -0.12018166
0000c0 e1 ae c9 3b 20 0b f9 3c 88 97 29 bc 83 78 86 ba
       0.0061548804 0.030400813 -0.010351069 -0.0010259304
0000d0 a5 0b 32 3e 12 60 89 3c 5b 63 85 3d a1 b7 92 bd
       0.17387255 0.016769443 0.06513091 -0.07163931
0000e0 98 86 c3 bd d8 c3 7c 3c 79 6a 1d bd b3 4f 66 bd
       -0.09547156 0.015427552 -0.03843162 -0.05622835
0000f0 e5 c0 1f 3e 8d b2 fa 3d 03 70 79 bd 0b 21 e9 bd
       0.15600927 0.12241087 -0.06089784 -0.113832556
000100 92 cd 0f bd d7 8b af 39 35 16 ca 3d ce 77 0f 3d
       -0.035108157 0.0003348279 0.09867517 0.035026364
000110 42 92 bf bd 55 d5 a1 bc 6c 61 7a bd cd 63 3b be
       -0.09354068 -0.019755045 -0.061128065 -0.1829979
000120 35 5b 50 bd a6 37 16 3e a6 00 11 3d 94 e0 17 3b
       -0.05086823 0.14669666 0.03540101 0.002317463
000130 a8 8f 97 3c a5 3e 73 3d a0 24 89 3c ca 30 bf 3d
       0.018501118 0.059385914 0.016741097 0.09335478
000140 31 a8 35 3d cc 65 4f 3c b2 d2 77 3d 38 05 1b 3d
       0.044349853 0.012658548 0.06050367 0.037846774
000150 a7 4e e4 bc 6e 43 1c 3c 9f e9 fb 3a cc 94 21 3e
       -0.027869536 0.009537561 0.0019219405 0.15779418
000160 88 c1 77 bb 2c fe 9f bd 57 c3 ce 3d 14 45 ad bd
       -0.0037804563 -0.07812151 0.10095852 -0.08460441
000170 93 9c 2d 3d 10 3e dc 3d 1a 99 03 be f4 cb b0 3d
       0.04238565 0.10754025 -0.12851372 0.08632651
000180 29 ae 16 bd 59 cd 1e 3e 66 1d 51 3e 14 20 fb bd
       -0.036787186 0.15508021 0.20421371 -0.12261978
000190 dc d6 6d bc 19 35 d9 3c 2d 96 03 be d3 e7 db bd
       -0.0145165585 0.026514577 -0.12850256 -0.10737576
0001a0 5f 14 87 3d e5 63 44 3e ec 3c a4 bd fb d5 e0 bd
       0.06595682 0.19178732 -0.080194324 -0.109783135
0001b0 01 77 8b 3c ec 6a a9 3d f1 c5 b9 3d 1d 23 ec bd
       0.017024519 0.08272347 0.090709575 -0.11530135
0001c0 25 c1 a2 39 89 bb 65 3b 97 e9 53 bd 72 0a b4 3c
       0.00031042952 0.0035054407 -0.05173644 0.021977637
0001d0 0b 49 06 3e 93 36 ad be 55 8f 2a 3e ec 7e f0 bb
       0.13113801 -0.338307 0.1665624 -0.007339349
0001e0 e7 75 d7 bb c6 31 81 bd 0e 68 79 3d 88 aa 7e 3d
       -0.0065753344 -0.06308322 0.06089025 0.06217435
0001f0 c6 6a 25 be 12 28 90 3d 01 b8 e4 bd 2f 3a ce bc
       -0.16154012 0.07038893 -0.111679085 -0.025174228
000200 61 f3 e5 bd ca 60 98 bb 3c fc 56 3d 51 78 b9 3b
       -0.112280615 -0.00465021 0.052486643 0.005660095
000210 1d ce 67 3d 86 65 91 bd 3e 53 34 be 7a 1f eb bd
       0.05659305 -0.07099442 -0.1760988 -0.11480613
000220 b1 ce 1c bd f3 85 37 3d 49 6b 12 3e 8b f2 8d bc
       -0.038283054 0.04480548 0.14298739 -0.017327568
000230 bf 67 ad bd 27 19 25 be bd 7d 9a 3d 95 2a db bd
       -0.084670536 -0.16122876 0.07543514 -0.10701481
000240 b1 7d 86 3d f9 10 30 be 25 9b b5 bc 56 87 bc 3d
       0.065669425 -0.17193975 -0.022168705 0.09205501
000250 75 6b 2b 3e e8 3e 21 be b4 eb 2d 3e 7e b8 1c 3c
       0.1674021 -0.15746653 0.16984445 0.009565471
000260 70 56 0a 3e fa e7 40 be 95 dc 36 3e 8b b6 0b 3e
       0.13509536 -0.18838492 0.17857583 0.13643853
000270 75 d5 d8 bd 4b 9e 2c bd 24 b7 ea 3c 23 22 c0 3c
       -0.10587589 -0.042143147 0.028651781 0.023453778
000280 b4 72 cf bb aa 10 ac 3d aa 67 15 be 84 4e c1 3d
       -0.0063308123 0.08401616 -0.14590326 0.09438804
000290 d0 8c 54 bd 89 59 ad 3d 5d bc 39 be 47 69 95 bd
       -0.0518921 0.08464343 -0.18138261 -0.07295471
0002a0 12 21 f3 bd 77 b8 77 be 9c ba fe bc a3 fc 58 3c
       -0.11871542 -0.24191462 -0.031094842 0.013243827
0002b0 c7 aa 49 bd 0d cf d1 3c 04 ca 0c be 3a 19 82 3e
       -0.04923513 0.025611425 -0.13748938 0.2540987
0002c0 54 df e1 bc 4d fe 06 3e c8 97 8e bc e1 06 14 bc
       -0.027572311 0.13182946 -0.01740636 -0.009034843
0002d0 ce 66 63 bd 2d 7f 2a 3c 87 55 f0 bd 94 7f 82 bd
       -0.055517964 0.010406298 -0.11735063 -0.0637199
0002e0 36 60 b7 3c ec 9f ca 3d cc 7a 46 be 85 04 6f bd
       0.022384744 0.09893784 -0.19382781 -0.05835392
0002f0 1d f4 94 3e 6a 52 19 3d 84 8c 7c bd d3 83 e8 bb
       0.29092494 0.03743211 -0.061657444 -0.007095793
000300 c7 10 04 bd a5 e2 5d bc 11 8f 76 bd 7d bb 0c be
       -0.032242563 -0.013542806 -0.060195033 -0.13743396
000310 d5 6c b6 bd 16 7d 37 bd 45 73 64 bd b1 28 97 bd
       -0.08907477 -0.044797026 -0.055773992 -0.07380808
000320 11 28 d0 3c bc e5 b5 bd 9f 54 0b 3c 1b da 1a bd
       0.02540973 -0.08881709 0.008504062 -0.037805658
000330 e5 a6 59 3d ba 41 24 3d 40 3c 0b be 77 05 9c 3d
       0.05313768 0.040101744 -0.13597202 0.0761823
000340 61 9e bc 3c ab 69 c1 3b 6a e3 58 3b e9 97 f5 bc
       0.02302474 0.005902489 0.0033094534 -0.029979663
000350 47 22 c9 3d 81 e9 b8 3d 12 0a 25 3b ff 9c 87 3c
       0.09820991 0.09028912 0.0025183004 0.016554354
000360 77 99 64 bd fb 82 0c be d3 d2 8f 3d 35 bb 92 bd
       -0.055810418 -0.1372184 0.070226334 -0.07164613
000370 f0 b2 18 3e e6 cb 47 3c da fe 96 bd 01 56 22 be
       0.14912009 0.012194609 -0.07372828 -0.1585312
000380 2d 9a e5 bd 1f c2 e6 bd 30 19 d9 bd 19 20 9b 3d
       -0.11211047 -0.112674944 -0.10600507 0.075744815
000390 e2 95 a1 bc 95 21 c6 3c 0b bd 42 bd a3 30 44 bc
       -0.01972479 0.024185935 -0.047543567 -0.0119744865
0003a0 f8 f5 d3 bc 0e ac d4 3d 04 bc b8 3d ab 9f fb bd
       -0.025874123 0.10384379 0.09020236 -0.122863136
0003b0 68 01 0b be de 9d 16 3d a8 35 a0 3d c7 95 21 3c
       -0.13574755 0.036771648 0.07822734 0.00986237
0003c0 d3 e3 65 bc 36 73 ef bd 4c a1 fe 3c 53 3e 22 bd
       -0.014031368 -0.116918966 0.031082772 -0.03961022
0003d0 ea 77 5c bd 8c a2 b2 bd 16 80 a5 3c ea 75 17 be
       -0.053825296 -0.087224096 0.020202678 -0.14791074
0003e0 b0 2e 46 3d 88 34 9c bc 6f ba b6 bd 48 44 3e 3e
       0.04838437 -0.019068018 -0.08922278 0.18580735
0003f0 58 04 0a be fb 99 22 bb e9 d0 38 3e e4 ac a3 3c
       -0.1347822 -0.0024811018 0.18048443 0.019979902

network_body._body_endoder.seq_layers.2.bias f4 [128]
000000 db a0 28 3b ba 00 f8 3c 9c 98 50 3c 39 ed c4 3c
       0.0025730643 0.030273784 0.012731697 0.024038898
000010 7f 19 07 3c 85 68 61 bc 3d 0e 06 3d f3 04 d0 3b
       0.008245825 -0.01375783 0.032728422 0.0063482462
000020 d7 e5 1a 3c cb 0e e4 3c a9 06 03 3d 06 c1 45 3c
       0.009454212 0.027839085 0.031988773 0.012069946
000030 b6 d4 9c 3c 01 93 59 bc f2 75 c6 3c 2e 19 2e 3a
       0.019144397 -0.013279677 0.024226163 0.00066413253
000040 a8 d8 f9 3c eb 36 1a 3d 64 ab 82 3c 89 2e e5 3c
       0.030498818 0.03765003 0.015950866 0.027976291
000050 11 b3 fe 3c 5f 89 63 3c 4f fb d5 bb d2 6c 4e 3b
       0.031091245 0.013887732 -0.0065302025 0.0031497967
000060 4a 3e 15 bc 2d df d0 3c d7 c7 c3 3c 37 85 7e 3b
       -0.009109089 0.025497044 0.023899002 0.0038836726
000070 b6 59 fa 3c af 55 94 3c 9d 92 8e 3b 53 38 06 3d
       0.030560356 0.018107263 0.0043509738 0.03276856
000080 c9 40 c0 3b 93 f7 c2 3c ac 0c be ba 8d cb 6a bc
       0.005867098 0.023799693 -0.0014499626 -0.014330757
000090 3f 2e c8 3b a0 5a b8 3b 1a bd cc 3b 45 9a b5 3c
       0.0061090286 0.0056260377 0.0062481286 0.022168288
0000a0 b0 3d e0 3c e2 ce 1c 3c e9 e3 85 bb 39 ba a4 3c
       0.027373165 0.009570809 -0.004086007 0.02010833
0000b0 9c bc 2a 3d 79 ef b7 3c f7 2e a9 3c 74 ef 5d 39
       0.04168378 0.022453057 0.020652277 0.00021165406
0000c0 c6 d5 7e 3c f3 53 c8 3b af 7c bc 3c e7 b7 be 3c
       0.015553897 0.006113523 0.023008673 0.02328105
0000d0 45 20 38 3c ad 4c a4 3c cd f5 05 3b f1 6d 14 3d
       0.011238162 0.020056093 0.0020440698 0.03623766
0000e0 22 3f d1 3c e7 64 2e bc e5 4b 8f 3c 69 8f 22 3c
       0.0255428 -0.010644174 0.017492244 0.009921887
0000f0 6c da 29 3b e4 89 c7 3c db 40 17 3d 34 9f 12 3d
       0.0025917543 0.024357744 0.036927085 0.03579636
000100 6d 76 db 3c 2a 42 18 3c f3 ba cd 3c ff 04 e7 bb
       0.026789868 0.0092931185 0.025113558 -0.007050156
000110 e9 f2 dc 3b fd 50 10 3d ca 13 4d 3d 4a 53 32 3b
       0.0067428243 0.035233486 0.0500677 0.0027210289
000120 65 37 5b 3c a3 0d 34 3c 1d ec 00 3d ae 00 4e 3d
       0.013379906 0.010989579 0.031475175 0.050293617
000130 c8 9b 3a 3c 1a f5 d1 3c 5c ef ac bc 33 1c cd 3c
       0.01138968 0.025629569 -0.02111023 0.02503786
000140 bc 4e 8d 3c 54 34 5d 3c d8 d8 1a bc 3b 7e 00 3c
       0.017249458 0.0135012455 -0.009451114 0.007842596
000150 45 55 1a 3d b8 81 30 3d 30 d0 ff 3b d1 db 69 3c
       0.037678976 0.04309246 0.0078068003 0.0142736
000160 c0 8b 30 3c 83 19 2f 3b 28 89 24 3d 20 66 9d 3c
       0.0107755065 0.0026718087 0.040169865 0.019213736
000170 38 84 c3 bc 78 48 63 3c 54 c6 da bc d9 ae 05 bb
       -0.023866758 0.013872258 -0.026705898 -0.0020398407
000180 80 1f 8d 3c eb 0a 08 3d 47 40 41 3d a1 3d 11 3d
       0.017226934 0.033213537 0.04718044 0.035459165
000190 3a ae 0d 3d 5b 02 09 3c ff 86 b1 3c 45 35 f9 3c
       0.034589984 0.008362378 0.021670816 0.030420909
0001a0 ed fe 52 3c 47 c2 7a 3a c5 33 b0 39 81 e7 cc 3c
       0.012878162 0.0009565693 0.00033607907 0.025012733
0001b0 16 a0 c2 3c 1f 9a af 39 6f b8 03 3d 5e c0 61 bc
       0.023757976 0.0003349343 0.03215831 -0.013778774
0001c0 37 1b f5 3c a4 63 b4 bc f9 44 1f 3c d4 5b ce 3c
       0.029920204 -0.022020169 0.009721034 0.025190271
0001d0 7e 9f 1d 3d 7f d0 0f 3c 39 18 8a 3c 60 24 41 3c
       0.03848218 0.008777737 0.016857253 0.011788458
0001e0 c2 13 20 3d 1b b5 0d 3d 1e 25 d1 3c a6 64 d7 3b
       0.039081343 0.034596544 0.025530394 0.0065732775
0001f0 52 4d d4 3c 5b bb 1c 3c 0c 77 e5 bc 3e bf 01 3d
       0.025915775 0.009566153 -0.028010868 0.031676523

action_model._continuous_distribution.log_sigma f4 [1, 2]
000000 a3 8d cb bd f0 19 de bd
       -0.099391244 -0.10844791

action_model._continuous_distribution.mu.weight f4 [2, 128]
000000 93 d2 aa ba c1 3e 36 3d a4 64 49 bc f6 78 a0 3d
       -0.0013032727 0.04449344 -0.012292061 0.078355715
000010 4d ad 21 bd 56 1d cf bb d4 1d 81 3d 15 52 1d 3d
       -0.039471913 -0.006320636 0.063045174 0.038408358
000020 5d 0f 20 bd bc eb f7 3c 89 17 90 3d 88 53 4d bd
       -0.03907715 0.030263774 0.07035739 -0.05012849
000030 d8 46 52 bd 04 3f 66 3d 5d 97 34 3d 9d 82 0d 3d
       -0.051337093 0.05621244 0.044089664 0.03454839
000040 fa 9e d5 bc f2 25 2d 3d 96 b1 81 bc 76 89 96 bd
       -0.026076782 0.042272516 -0.01583175 -0.07350437
000050 4b b3 58 bd de 7a 37 3d 87 b8 f8 3b 07 f3 86 3c
       -0.052905362 0.04479491 0.0075903567 0.016473306
000060 9d 51 ab 3b f2 35 92 bd 79 d1 30 bd 5c 28 26 3c
       0.005228235 -0.071391955 -0.04316852 0.010141458
000070 40 b5 07 bd a5 d3 c6 bc bd a4 2d bd 09 49 3d 3d
       -0.033131838 -0.024270842 -0.042393435 0.04621223
000080 df fe 16 3d a0 ac 90 bb f7 5a e3 bc a3 21 28 3a
       0.036864158 -0.0044151098 -0.027753336 0.00064137037
000090 e3 53 ce bc b9 43 c5 bc 57 bf ab 3c 3c ff a0 bd
       -0.025186485 -0.024080144 0.020965261 -0.07861182
0000a0 40 d1 ae 3d 7b fd e3 3c 93 0f 08 bd ac f1 89 3a
       0.08536005 0.02783083 -0.033217978 0.0010524294
0000b0 fa 6c 74 3d c9 8f 58 bd de a9 66 bd 60 02 84 3c
       0.05967424 -0.0528715 -0.05631434 0.016114414
0000c0 52 d1 43 3d 01 8f 7c bd c1 c4 89 bd 0f 85 80 3d
       0.047807045 -0.061659817 -0.06726981 0.06275379
0000d0 04 c0 e0 bc ff 34 8b 3d 0c ae 52 3c d4 29 51 bd
       -0.02743531 0.067972176 0.012858879 -0.05106528
0000e0 3d a8 b6 bb 5e 91 5f bc f5 7f 5a 3d b5 40 27 3d
       -0.005574255 -0.013645498 0.053344686 0.040833194
0000f0 70 34 af 3c 47 b5 02 3d 3e c1 c2 3c 1e 3b c6 3d
       0.021387309 0.03191116 0.023773786 0.096792445
000100 3e af ed bc 29 e5 52 3d 94 ea 82 3d 89 28 82 3c
       -0.029014226 0.051488075 0.063923985 0.01588847
000110 f6 8a 2c 3d d6 2c 7c bd 32 46 c0 bd ca fd e7 bc
       0.04212471 -0.061566196 -0.09388389 -0.028319258
000120 6d 3b 46 3d d5 40 25 bd 80 5f 8d bd 5b 54 84 3d
       0.048396517 -0.04034503 -0.06902981 0.06461402
000130 1b dd 4c 3d d3 bc 9b 3d 25 62 a1 bc c4 b2 9d bd
       0.05001555 0.07604375 -0.01970012 -0.077001125
000140 d0 3e 06 bc 5d 7b 64 bd df b6 10 3d ff 4f 3f 3c
       -0.008193687 -0.05578171 0.03533065 0.011676787
000150 d7 3d 09 bd c5 f6 55 3d 1f 7c 4b 3b 06 76 ef 3c
       -0.03350624 0.05223729 0.0031049324 0.029231083
000160 31 3f 28 bd 2b 11 59 bb 3c 14 bd 3d 4e cb 26 bd
       -0.04107589 -0.0033121805 0.09232375 -0.04072123
000170 1b b8 01 3d d6 c6 f1 3c de d8 1e bd 98 94 47 bd
       0.031669717 0.029513758 -0.03878104 -0.048725694
000180 3c 29 21 bd 2c 23 4c bd da 45 ae 3d 98 89 7c 3d
       -0.039345965 -0.04983823 0.08509417 0.061654657
000190 de da 0a 3a 8e 7a 78 3d 40 2b 78 3d 25 93 a3 bd
       0.0005296896 0.060663752 0.06058812 -0.0798705
0001a0 9c 04 fd bb b7 d2 bc bc fd e1 a2 3c 3b b5 28 3d
       -0.0077214967 -0.023049695 0.01988315 0.04118846
0001b0 0b 55 51 bd ce 07 b2 bc 35 f1 4d bd ba 58 6c bd
       -0.051106494 -0.021732237 -0.05027886 -0.057701804
0001c0 df e7 82 bd 06 78 59 bb ee 4f 24 bd 2d 71 e8 bd
       -0.06391882 -0.0033183112 -0.04011529 -0.113497116
0001d0 a0 68 5b bd f0 f6 8d bb 22 22 48 3d f9 68 30 3d
       -0.053566575 -0.0043324158 0.048860677 0.04306886
0001e0 3d 99 82 3d 81 2a af 3c 90 66 a6 3c 06 b6 9c bc
       0.06376884 0.021382572 0.020312577 -0.019129764
0001f0 aa f8 1a 3d ff 6b f1 3c 80 6e 2e 3c b9 01 82 3d
       0.0378348 0.029470442 0.010646462 0.06347985
000200 0f bf ab bc e3 fa 91 bd d9 dc 40 3d 11 d7 d7 3c
       -0.020965127 -0.07127931 0.047085617 0.026347669
000210 68 f1 20 bd 6c ce 48 bd cb b4 73 bd fb 08 e2 3c
       -0.039292723 -0.049024984 -0.05949859 0.027592173
000220 3e 3a 24 3d 7c 80 9e 3d 09 3d 24 bd a7 65 a0 bc
       0.040094607 0.0773935 -0.04009727 -0.019579722
000230 fd 43 a7 bc 14 07 3a 3c 3e a6 2a 3d fe 5d 17 bb
       -0.020418162 0.011354227 0.041662447 -0.0023096795
000240 f8 ff 81 3d 79 07 7a 3d 36 16 57 bd 23 aa 6c 3d
       0.0634765 0.061042283 -0.052511416 0.057779443
000250 a4 bf 54 3c 71 84 8e bc 60 f2 6e bc 4d f4 0e bd
       0.012985144 -0.017397137 -0.014584154 -0.034900952
000260 be 77 ee bc 68 90 2c 3d 7f 89 84 bd 23 72 95 bc
       -0.029109832 0.042129904 -0.06471538 -0.018242901
000270 6c ea 5e 3d 10 1c 5e 3d 01 81 0f bd cf e0 8e bc
       0.05442278 0.05422598 -0.035035137 -0.017441181
000280 5a ca 2d 3c 9e 0e 64 bd d5 19 fb bc 76 b4 52 bd
       0.010607326 -0.055678003 -0.030651966 -0.051441632
000290 91 32 71 bd 97 a9 93 3c 17 42 e7 3a 11 32 15 bd
       -0.058886115 0.018025203 0.0017643598 -0.0364247
0002a0 d6 bf 18 3d 66 51 1f bd aa ae 5f bc ea 25 94 3d
       0.037292324 -0.038895987 -0.013652483 0.07233794
0002b0 0c a9 cd bd 65 b2 67 3d eb f9 56 bb 63 aa ee bc
       -0.10042009 0.056566615 -0.0032802771 -0.029133981
0002c0 a9 0b 20 3d 98 8c 3b 3b d4 70 82 3d e8 9c ac bc
       0.03907362 0.0028617736 0.063691765 -0.021070912
0002d0 bf c2 e7 bc d9 17 d4 3c c3 05 03 bd 00 31 45 bd
       -0.028291104 0.025890278 -0.031987917 -0.048142433
0002e0 e9 34 fb bd 4c 70 1b bd b1 36 08 3d 45 6b 8f 3b
       -0.12265951 -0.03794889 0.033255283 0.004376801
0002f0 c0 91 b9 bc 6b c0 ae bd 0c e0 73 bd 62 17 28 bd
       -0.022652507 -0.085327946 -0.05953984 -0.041037925
000300 cd 53 d7 3c 92 4b ef 3c b2 3d 00 3d ac 9b d9 3c
       0.026285077 0.02921084 0.031308837 0.026563488
000310 9d ce 21 bd dc 4e bd 3d 5b 1d f4 bb 5a 34 e9 3b
       -0.039503682 0.09243557 -0.0074497885 0.0071168365
000320 af fe 0f bc 53 bb 5c bc 47 a7 81 3d bb a7 45 3d
       -0.008788749 -0.013472396 0.06330734 0.048255663
000330 1c 87 8f bc 3d 69 aa 3b 45 43 24 bd 9d 9e 11 3d
       -0.01752048 0.0052005337 -0.040103216 0.035551656
000340 2e f2 72 bd df 14 ea bb 59 c7 64 3c 1a 7c e1 3c
       -0.05931299 -0.0071436013 0.013963544 0.027524997
000350 b0 86 ae 3d 2f b7 ae 3d 07 49 45 bd 6f 9c 33 3d
       0.08521783 0.08531033 -0.048165347 0.04385036
000360 ca ca 28 bd 2b ce 83 3b 58 ff d0 3c e4 9e bc 3c
       -0.04120902 0.00402238 0.025512382 0.023024984
000370 8f 28 13 bc 6f bd 6d 3d ca ed 4f 3c 39 4d fa ba
       -0.008981838 0.058041986 0.012690971 -0.00190965
000380 02 f9 58 bd c7 70 81 bd 0c b4 a1 3d f9 61 91 bd
       -0.052971847 -0.06320339 0.07895669 -0.07098765
000390 4c bd 87 3d 38 72 52 3a a1 42 b7 3c 30 ce d0 3c
       0.066279024 0.0008027884 0.022370638 0.025488943
0003a0 bd 72 0c 3d ca 53 50 bc 0c fd 61 3c e8 19 af 3d
       0.03428911 -0.012715289 0.013793241 0.08549863
0003b0 15 1a a2 bd 49 16 72 bc fb 6d 34 3d aa 15 dc bc
       -0.07915131 -0.014775821 0.044050198 -0.026865799
0003c0 54 06 be 3c 9c ef 44 3c e2 57 18 3c 99 b6 7f 3c
       0.023196377 0.012020018 0.009298297 0.0156074995
0003d0 b8 52 90 3d a1 8b 10 3d 5e b3 8a bd ed 36 01 b8
       0.07047027 0.03528941 -0.06772493 -3.080715e-05
0003e0 2c 52 c1 bd de d3 a6 3d bf 87 3a 3d 40 7c 16 bd
       -0.09439501 0.08145879 0.045539614 -0.036739588
0003f0 f4 ae 6c 3d c6 39 49 3d f8 7d 24 bc cc 61 0f 3d
       0.057784036 0.049127363 -0.010039799 0.035005376

action_model._continuous_distribution.mu.bias f4 [2]
000000 1b fd c3 ba fb 3f 00 3c
       -0.0014952751 0.007827754
