Assets/Cerebro/Minguito3000-500006.onnx (onnx, 79913 bytes, 9 tensors)

discrete_act_size_vector f4 [1, 2]
3.0 3.0
00000000: 0000 4040 0000 4040

network_body._body_endoder.seq_layers.0.weight f4 [128, 6]
0.17937395 -0.08963323 -0.025931237 0.750801 0.46581614 0.25522238 0.6837123 0.28199294
0.05653599 0.5075825 -0.10857895 0.38856038 -0.44931683 -0.5643441 -0.7450301 0.09368347
-0.17401682 0.11006799 -0.40673113 0.12934399 -0.28486714 -0.10060341 0.24336421 0.44792157
-0.039322406 -0.32569823 -0.2896753 0.49633175 -0.038819555 0.009218871 0.106137134 -0.40215442
-0.14544612 -0.20211627 0.18429986 -0.11186609 -0.45784947 -0.010193103 -0.011595659 0.073899634
-0.14221184 0.27202192 0.43025517 -0.8898005 -0.44519582 -0.19692692 -0.14627424 -0.19525564
0.34034765 -0.29852617 -0.4119079 0.051942237 -0.13127401 0.80642474 0.24213555 0.46041968
-0.2261157 0.14472951 1.0733026 0.1296231 -0.6718097 0.40140194 0.30140293 -0.41574752
0.41899568 0.6287085 -0.32425204 0.7324403 0.06993011 0.20701665 -0.08591302 -0.29846266
-0.83044696 -0.3400491 0.0076800706 0.15826526 0.14364332 1.0662502 -0.31312448 0.20077597
-0.07686761 0.38500482 -0.029357985 -0.20259885 -0.16270266 -0.107041694 -0.93522954 -0.324636
-0.6042169 -0.4867043 -0.4209101 0.056253273 0.37613103 -0.22114965 0.45968518 -0.14536121
0.20380835 0.5027046 0.22644462 0.6512956 0.16616638 -0.734839 -0.27526927 -0.45794943
0.6595002 0.5510037 -0.37275353 0.31370923 -0.10947599 -0.2787143 -0.12167832 0.1036245
0.30795893 0.076337434 0.41223875 0.41612127 -0.080182634 -0.66766715 -0.33457223 -0.8934993
-0.3307161 0.75232625 -0.2682088 0.16973554 0.3656066 -0.6059911 -0.84997773 0.040973213
0.088530436 0.92105657 -0.2517905 -0.47571203 -0.62221307 0.14358637 -0.21963292 0.49478257
0.010061322 0.36864334 0.27086475 -0.086673625 0.37875712 -0.6694527 0.336385 0.6142389
-0.3602678 0.28252548 0.3463305 0.16012338 -0.07342925 0.06383777 0.7312832 0.5332338
0.28124446 0.35698175 -0.00035094487 -0.41434702 0.30752635 -0.06143283 0.17458373 0.4280947
-0.55550236 -0.23422647 0.0350514 0.06042345 -0.47755283 0.19048211 -0.43234494 0.1716879
-0.19193007 0.1755458 -0.43962634 0.17341317 0.7055876 0.37184456 -0.017530339 -0.49066642
-0.59389335 -0.04999268 -0.008105248 0.14023769 -0.0021469484 0.06658036 0.35927022 0.5271843
0.09390923 -0.547339 0.07954159 0.4183683 0.5975878 -0.11463534 -0.33462337 0.33069262
0.2525322 0.14595288 -0.27158183 0.36700094 0.62138796 0.5815652 -0.17389861 0.8053014
0.72912884 0.112919174 0.09872439 0.38969308 -0.25025532 -0.1274963 0.24379846 0.39160776
0.6029913 0.18422566 0.639699 0.19944856 -0.10539072 0.5739678 0.7474913 0.2183731
-0.2052124 0.21536577 -0.17506441 0.3460518 0.077392355 -0.3993772 -0.62626207 -0.5105599
-0.2302204 0.29422632 -0.120504625 -0.35687718 0.19957574 0.20382404 0.11245423 0.3767016
0.07896148 -0.72103435 -0.1607641 0.10769606 0.14674094 0.08792276 0.15639004 -0.32798114
-0.49838838 0.37568796 0.4345216 -0.3626063 0.46140307 -0.24244356 0.10685722 0.048726566
0.029363805 0.24518378 1.038675 0.16116658 -0.52129203 -0.19613208 -1.3329562 0.088074274
00000000: cead 373e a091 b7bd bf6d d4bc 7f34 403f
00000010: 747f ee3e 82ac 823e c507 2f3f 6161 903e
00000020: 4892 673d edf0 013f a45e debd 63f1 c63e
00000030: db0c e6be db78 10bf 4bba 3ebf 1edd bf3d
00000040: 7731 32be 546b e13d 103f d0be c072 043e
00000050: 1bda 91be 2909 cebd 7834 793e fa55 e53e
00000060: 8810 21bd ebc1 a6be 5250 94be 321f fe3e
00000070: 4101 1fbd bf0a 173c 6d5e d93d 2fe7 cdbe
00000080: d4ef 14be 91f7 4ebe 1ab9 3c3e 0c1a e5bd
00000090: 3f6b eabe f900 27bc b8fb 3dbc b158 973d
000000a0: fb9f 11be 7546 8b3e 684a dc3e f7c9 63bf
000000b0: b5f0 e3be 36a7 49be eac8 15be 18f1 47be
000000c0: 0c42 ae3e 6cd8 98be 98e5 d2be 62c1 543d
000000d0: b26c 06be da71 4e3f 62f2 773e 21bc eb3e
000000e0: e08a 67be f933 143e fb61 893f ebbb 043e
000000f0: b8fb 2bbf 8e84 cd3e 7c51 9a3e dcdc d4be
00000100: 9a86 d63e 0af3 203f 5d04 a6be 3581 3b3f
00000110: 8437 8f3d 2cfc 533e 2af3 afbd 19d0 98be
00000120: 2c98 54bf ea1a aebe 1aa9 fb3b 4a10 223e
00000130: 3c17 133e e37a 883f da51 a0be 3798 4d3e
00000140: c46c 9dbd 5a1f c53e 2880 f0bc 1376 4fbe
00000150: 879b 26be ad38 dbbd 346b 6fbf b136 a6be
00000160: f5ad 1abf 4e31 f9be 8781 d7be d569 663d
00000170: 3f94 c03e 0e75 62be db5b eb3e 92d9 14be
00000180: 23b3 503e 40b1 003f 19e1 673e 4fbb 263f
00000190: 8527 2a3e 691e 3cbf 18f0 8cbe 5978 eabe
000001a0: 01d5 283f 940e 0d3f 8dd9 bebe 7f9e a03e
000001b0: f334 e0bd a4b3 8ebe 7c32 f9bd 1539 d43d
000001c0: cbac 9d3e cd56 9c3d f510 d33e d90d d53e
000001d0: cb36 a4bd 3cec 2abf 0d4d abbe 5fbc 64bf
000001e0: 9f53 a9be 7498 403f aa52 89be 27cf 2d3e
000001f0: ca30 bb3e 3c22 1bbf 2498 59bf 87d3 273d
00000200: 724f b53d 5dca 6b3f afea 80be 8790 f3be
00000210: 5b49 1fbf 4e08 133e 74e7 60be 2454 fd3e
00000220: 3ed8 243c d2be bc3e c9ae 8a3e f181 b1bd
00000230: 74ec c13e 4161 2bbf a83a ac3e c33e 1d3f
00000240: 0575 b8be 2ea7 903e 3b52 b13e 62f7 233e
00000250: 1362 96bd 60bd 823d 6035 3b3f 0382 083f
00000260: 46ff 8f3e 50c6 b63e 06ff b7b9 4b25 d4be
00000270: 1874 9d3e fea0 7bbd 14c6 323e 3b2f db3e
00000280: 6735 0ebf 10d9 6fbe 0f92 0f3d 947e 773d
00000290: ce81 f4be be0d 433e 515c ddbe f4ce 2f3e
000002a0: 5189 44be 47c2 333e b416 e1be 3993 313e
000002b0: 64a1 343f 6962 be3e c99b 8fbc a138 fbbe
000002c0: 6509 18bf 20c5 4cbd e0cb 04bc 789a 0f3e
000002d0: d1b3 0cbb 495b 883d 44f2 b73e 8df5 063f
000002e0: 7b53 c03d 691e 0cbf b3e6 a23d 5f34 d63e
000002f0: 84fb 183f efc5 eabd c153 abbe 8b50 a93e
00000300: e74b 813e ac74 153e c60c 8bbe 8ce7 bb3e
00000310: 4813 1f3f 75e1 143f 7a12 32be 3c28 4e3f
00000320: 30a8 3a3f 2b42 e73d 0330 ca3d da85 c73e
00000330: 7721 80be 648e 02be 4ea6 793e d080 c83e
00000340: a35d 1a3f a7a5 3c3e 50c3 233f 3e3c 4c3e
00000350: 17d7 d7bd 8eef 123f 975b 3f3f 339d 5f3e
00000360: 3323 52be d888 5c3e 1644 33be b42d b13e
00000370: e27f 9e3d 2b7b ccbe b652 20bf 0eb4 02bf
00000380: e6be 6bbe d5a4 963e 21cb f6bd 9bb8 b6be
00000390: 955d 4c3e 40b7 503e 674e e63d 08df c03e
000003a0: 8eb6 a13d b595 38bf 589f 24be c08f dc3d
000003b0: 4243 163e d910 b43d b624 203e 25ed a7be
000003c0: c32c ffbe 2c5a c03e 9d79 de3e 88a7 b9be
000003d0: 063d ec3e 2043 78be f5d7 da3d 8295 473d
000003e0: 5d8c f03c 7511 7b3e 4df3 843f da08 253e
000003f0: 6573 05bf d9d6 48be 4f9e aabf 4960 b43d

network_body._body_endoder.seq_layers.0.bias f4 [128]
-0.029266298 0.029772565 -0.02759654 0.0075548505 0.013029668 -0.009986204 0.0067595383 0.0013619016
0.022105588 -0.0015178268 -0.011817409 0.0069254 0.0034461888 0.024677576 0.002598573 -0.015785024
0.010448637 -0.011267198 0.019133808 0.0005448313 0.007888146 0.04415018 0.072364494 -0.029929785
0.011903069 -0.0157679 -0.010148007 -0.005299712 0.087623656 0.014244469 0.010944267 0.025815615
-0.008821534 -0.0038414565 0.02278182 -0.012624555 0.020571968 -0.010350091 0.014506743 0.011931169
0.008067601 0.023197476 -0.0036750128 0.006436512 0.026064003 -0.008701736 -0.034873042 -0.0043954425
0.017292669 0.0015833303 0.0013717408 0.0012214963 0.014235005 -0.012469096 0.017316185 0.01179227
-0.00096909754 0.09207693 0.0019652413 0.022013139 0.006909429 0.02129843 -0.012338815 0.0074034464
0.013843408 0.010949743 0.014760319 0.03006363 0.0038875663 -0.0038980981 0.0038211036 0.005114176
-0.006858777 0.020883985 0.0052302335 -0.006350299 0.01265683 0.0061287694 0.0030971302 0.012535282
0.023069492 0.0021222325 0.028541924 0.0146069825 0.010023403 0.015751632 0.0040371437 0.00092472637
0.009571631 -0.010565248 -0.015355678 -0.0076168724 0.0018739596 -0.019257698 0.01363612 -0.021321472
0.015651394 0.0016146277 0.0070958515 -0.009297879 -0.0011549911 0.00022148521 0.0048091277 -0.0089989565
0.006104216 0.012151709 0.019344924 -0.013036536 -0.012603192 -0.0054174424 -0.0040003145 -0.026653636
0.0068889894 -0.006550839 -0.008921639 0.02542938 0.028249143 0.013105379 -0.00067982124 0.0012159485
-0.013002572 0.020833254 -0.019268706 0.010903634 0.03240767 -0.0015685139 -0.011644129 -0.008601026
00000000: e0bf efbc 98e5 f33c 2412 e2bc ae8e f73b
00000010: 637a 553c 2d9d 23bc 1e7f dd3b d681 b23a
00000020: c716 b53c d1f1 c6ba ce9d 41bc 77ee e23b
00000030: 74d9 613b a128 ca3c d24c 2a3b 984f 81bc
00000040: c330 2b3c 0e9a 38bc 81be 9c3c 02d3 0e3a
00000050: 483d 013c d2d6 343d d633 943d 4f2f f5bc
00000060: 1705 433c af2b 81bc d443 26bc 35a9 adbb
00000070: 0874 b33d a261 693c 954f 333c 457b d33c
00000080: 3288 10bc f2c0 7bbb f0a0 ba3c 39d7 4ebc
00000090: 8b86 a83c 6e93 29bc b1ad 6d3c f37a 433c
000000a0: f92d 043c a208 be3c 7cd8 70bb 60e9 d23b
000000b0: 2d84 d53c ba91 0ebc 09d7 0ebd a507 90bb
000000c0: 5ba9 8d3c c087 cf3a fccb b33a 9d1a a03a
000000d0: f039 693c 2e4b 4cbc acda 8d3c 5d34 413c
000000e0: 090b 7eba d492 bc3d 47cb 003b e654 b43c
000000f0: 7e68 e23b 0c7a ae3c be28 4abc 9c98 f23b
00000100: 76cf 623c 8d66 333c 44d5 713c 0048 f63c
00000110: 8ac6 7e3b 3c77 7fbb 7b6b 7a3b d194 a73b
00000120: 97bf e0bb e414 ab3c 6162 ab3b 2b16 d0bb
00000130: 985e 4f3c d8d3 c83b 39f9 4a3b c960 4d3c
00000140: 3bfc bc3c 2715 0b3b c1d0 e93c 2052 6f3c
00000150: 3339 243c 9109 813c 044a 843b 5669 723a
00000160: 55d2 1c3c dd19 2dbc 6296 7bbc f596 f9bb
00000170: a69f f53a 52c2 9dbc 086a 5f3c 5eaa aebc
00000180: 5a37 803c eaa1 d33a 5184 e83b 2256 18bc
00000190: 1263 97ba 7c3e 6839 e395 9d3b 5c70 13bc
000001a0: e005 c83b f617 473c 3f79 9e3c 3297 55bc
000001b0: 9e7d 4ebc cd84 b1bb 1215 83bb ba58 dabc
000001c0: 08bd e13b 6ca8 d6bb 112c 12bc 4651 d03c
000001d0: bf6a e73c f2b7 563c 0836 32ba 7660 9f3a
000001e0: bd08 55bc 80aa aa3c 68d9 9dbc 28a5 323c
000001f0: e8bd 043d 9896 cdba 04c7 3ebc 51eb 0cbc

network_body._body_endoder.seq_layers.2.weight f4 [128, 128]
-0.15395144 -0.13878167 0.12617883 0.06173577 -0.0017387972 0.080019236 0.0842238 -0.104082756
0.080296345 -0.1041546 0.09282795 0.07814654 0.10616336 0.0038943707 -0.041853294 -0.114091545
-0.053352278 0.18767254 0.05583596 0.0050123115 0.07922236 -0.06787615 0.07079809 -0.010314046
-0.13802285 -0.15457807 0.032028805 -0.048753794 -0.16147935 -0.0717918 -0.067932345 0.09952549
-0.0034641137 -0.01672945 -0.104317166 -0.11599685 -0.049100816 0.06353548 0.054265726 0.087130256
0.075870246 0.021195062 0.07346773 -0.009832805 -0.14816292 0.010924686 0.054794453 -0.03628136
0.045736432 0.034213126 0.1395221 0.12433418 -0.07771407 0.0705482 0.096604936 -0.016835146
-0.072409704 -0.14173329 -0.04498051 0.017929066 -0.027605366 -0.14723288 0.07319798 0.15123343
0.038585678 0.218 -0.03277433 -0.04526673 -0.05333379 -0.050301466 -0.041838665 0.09649996
0.010404192 0.12415582 0.04029261 0.035763998 0.003007023 -0.11784158 -0.021452745 0.01685674
-0.12641805 -0.15814498 0.14331076 0.15123163 0.19346955 0.09649186 -0.029039934 0.019274475
0.12634583 0.03166584 -0.027041435 -0.10332328 0.024141934 -0.09670648 -0.15904969 -0.123466425
0.0413055 0.018442502 -0.040802497 0.15384142 -0.053184584 -0.011400989 0.06423674 -0.057169195
0.08002157 0.014463198 0.09468623 -0.00048139924 0.035809524 0.1317608 -0.14040098 0.010733674
-0.08074012 0.025567774 0.029227955 0.04229271 0.17820454 0.049424406 -0.05120506 -0.029773287
-0.07546139 -0.051658742 -0.13593204 0.013508277 -0.032317024 0.004848911 0.06055828 0.12650687
0.1395699 0.13739367 0.07011906 -0.12611897 0.008304687 -0.06886087 -0.1503304 0.0142195765
-0.005783005 -0.21360448 -0.006897298 -0.021446005 0.019449212 -0.048011173 -0.017667461 -0.021776974
-0.047315385 -0.024470076 -0.21736883 0.0750911 0.12457747 -0.07296151 -0.02455887 0.018167065
-0.023452058 0.032428976 -0.056680113 -0.062513284 -0.16733412 -0.01724138 0.06011703 -0.025495853
0.05754967 0.14870404 -0.007256114 -0.056779984 -0.043671545 0.09980445 -0.11284424 0.16849858
0.036990505 -0.032819692 -0.07225458 0.04575675 -0.15566811 0.05443156 0.02215626 -0.031774387
-0.083142556 -0.006246288 0.1803524 -0.033608448 -0.1536262 0.04989645 -0.018629963 0.037769765
0.034756497 -0.08678328 0.063167706 0.111498654 0.121813625 0.053924844 -0.1362672 0.01969444
0.024847277 -0.007007156 -0.04209109 -0.17793284 0.0060222032 0.011513601 0.024827892 0.00079424167
0.07448597 0.022762585 0.0058168606 0.08035613 -0.16444167 0.04283628 -0.018552274 0.10782366
-0.05510509 0.08525442 -0.0245699 0.1383701 -0.09555853 -0.13682123 -0.053954624 -0.02465774
0.024417244 -0.07148053 0.0407507 0.17407826 -0.028001534 0.013975175 0.07722145 0.067642346
0.04311278 -0.087880604 -0.11821166 -0.0881073 -0.043582704 0.14501974 0.04747909 -0.027835805
0.052430402 0.01006742 0.14433242 -0.0017669367 -0.111332044 -0.22266063 0.10889052 0.012029304
0.13059281 0.010682277 0.06438976 0.13266072 0.030658131 -0.00575112 0.0058539896 0.07901417
0.090562835 -0.07012509 0.09843194 0.10275797 -0.069909595 -0.108064644 0.08364173 -0.12505735
00000000: 72a5 1dbe c81c 0ebe 0635 013e a6de 7c3d
00000010: 5ae8 e3ba 20e1 a33d 877d ac3d 5729 d5bd
00000020: 6972 a43d 024f d5bd 951c be3d 4b0b a03d
00000030: 2d6c d93d b338 7f3b 5c6e 2bbd d4a8 e9bd
00000040: eb87 5abd 3b2d 403e 3fb4 643d 513e a43b
00000050: 553f a23d a702 8bbd 97fe 903d 3ffc 28bc
00000060: dd55 0dbe b749 1ebe a330 033d 0fb2 47bd
00000070: d85a 25be 9407 93bd 1d20 8bbd 05d4 cb3d
00000080: 2f06 63bb 330c 89bc 3da4 d5bd c28f edbd
00000090: f01d 49bd e41e 823d bd45 5e3d 5971 b23d
000000a0: dc61 9b3d 44a1 ad3c 4076 963d c619 21bc
000000b0: 05b8 17be 74fd 323c 2670 603d c39b 14bd
000000c0: 2056 3b3d 1023 0c3d e2de 0e3e eba2 fe3d
000000d0: 8e28 9fbd 937b 903d cfd8 c53d dce9 89bc
000000e0: 8a4b 94bd 8822 11be 7c3d 38bd fadf 923c
000000f0: a624 e2bc 37c4 16be d3e8 953d f0dc 1a3e
00000100: 040c 1e3d 643b 5f3e 603e 06bd 9b69 39bd
00000110: 8874 5abd e908 4ebd 055f 2bbd c5a1 c53d
00000120: 5876 2a3c 6845 fe3d dd09 253d 457d 123d
00000130: 7911 453b ed56 f1bd abbd afbc 2517 8a3c
00000140: bc73 01be c2f0 21be 0ec0 123e 77dc 1a3e
00000150: e21c 463e 869d c53d 28e5 edbc 81e5 9d3c
00000160: cd60 013e 0ab4 013d 0086 ddbc 289b d3bd
00000170: 4ec5 c53c 0c0e c6bd ecdd 22be f7db fcbd
00000180: f52f 293d bb14 973c 8520 27bd 9b88 1d3e
00000190: 14d8 59bd 37cb 3abc 8d8e 833d 3f2a 6abd
000001a0: 59e2 a33d 0df7 6c3c dbea c13d 5064 fcb9
000001b0: 02ad 123d 4eec 063e 46c5 0fbe 4bdc 2f3c
000001c0: 135b a5bd 8273 d13c 776f ef3c 1f3b 2d3d
000001d0: 407b 363e 3f71 4a3d 66bc 51bd 1ce7 f3bc
000001e0: 808b 9abd 1e98 53bd c531 0bbe d251 5d3c
000001f0: db5e 04bd 9de3 9e3b f60b 783d 048b 013e
00000200: 69eb 0e3e edb0 0c3e 959a 8f3d 5525 01be
00000210: 6210 083c ee06 8dbd 36f0 19be 3af9 683c
00000220: 5d7f bdbb 22bb 5abe bb02 e2bb 88af afbc
00000230: f453 9f3c 5da7 44bd 5abb 90bc a065 b2bc
00000240: c7cd 41bd 7875 c8bc ef95 5ebe 5dc9 993d
00000250: 7922 ff3d d86c 95bd af2f c9bc 19d3 943c
00000260: 881e c0bc 3fd4 043d 6829 68bd f706 80bd
00000270: a359 2bbe cb3d 8dbc 463d 763d aedc d0bc
00000280: 34b9 6b3d df45 183e b2c4 edbb 2192 68bd
00000290: efe0 32bd 4766 cc3d e21a e7bd e48a 2c3e
000002a0: 5b83 173d f16d 06bd 36fa 93bd 6e6b 3b3d
000002b0: 7667 1fbe a1f3 5e3d 0c81 b53c dc25 02bd
000002c0: a546 aabd a9ad ccbb 4dae 383e 03a9 09bd
000002d0: 3050 1dbe 3860 4c3d dd9d 98bc 78b4 1a3d
000002e0: d45c 0e3d 6fbb b1bd 125e 813d 6859 e43d
000002f0: 6c79 f93d 4ce0 5c3d a189 0bbe 3c56 a13c
00000300: 848c cb3c 499c e5bb b567 2cbd 0734 36be
00000310: e755 c53b 8ba3 3c3c dd63 cb3c a834 503a
00000320: 1a8c 983d 9a78 ba3c 5d9b be3b c191 a43d
00000330: 6663 28be 1875 2f3d f0fa 97bc a7d2 dc3d
00000340: e0b5 61bd df99 ae3d d146 c9bc e4b0 0d3e
00000350: 31b4 c3bd dd1a 0cbe 86ff 5cbd 07ff c9bc
00000360: ac06 c83c 6264 92bd 35ea 263d 9241 323e
00000370: 7963 e5bc 22f8 643c 4826 9e3d 1288 8a3d
00000380: 0797 303d bffa b3bd f418 f2bd 9a71 b4bd
00000390: c783 32bd 0e80 143e 6f79 423d ea07 e4bc
000003a0: 43c1 563d d2f1 243c e1cb 133e 8f98 e7ba
000003b0: 0e02 e4bd 2601 64be fe01 df3d 8f16 453c
000003c0: 1fba 053e b804 2f3c c7de 833d 36d8 073e
000003d0: c326 fb3c e473 bcbb d3d2 bf3b 2ed2 a13d
000003e0: 0279 b93d be9d 8fbd af96 c93d c572 d23d
000003f0: c32c 8fbd ff50 ddbd 5b4c ab3d 090f 00be

network_body._body_endoder.seq_layers.2.bias f4 [128]
-0.0033250456 -0.0035097317 0.00647606 0.018451171 0.070624225 0.040961508 -0.0073070712 0.00047997865
0.02063192 0.0064975997 0.0048951916 0.025409626 -3.6019686e-05 -0.014167152 0.002290187 -0.0053098304
0.0042879265 0.0018534723 0.0013045601 0.0063997316 0.0631474 -0.013453245 -0.015929388 0.04522131
0.018406516 -0.0031179048 0.013009516 0.007705719 0.016239455 0.019123156 0.011266509 0.014075374
0.008347122 0.006097889 0.0033739586 -0.010506674 0.0072699515 0.003061064 0.0200573 -0.012907025
0.012725798 0.015998913 0.007017352 -0.0035995888 0.029681854 0.0052696457 -0.0097386325 -0.003377411
-0.0023382134 -0.0124804415 0.021956706 -0.003456509 -0.0032807328 0.007273867 -0.0029791677 0.0035172654
0.00630502 -0.050624568 -0.0036098023 0.01841115 0.009322765 -0.0054599163 0.004509932 -0.00018819382
0.03496423 -0.0046878634 -0.01470855 0.011096479 -0.0043436787 0.004136152 0.016506014 0.021890363
0.011104352 -0.0067344974 0.00048078335 0.0067602033 0.023918549 -0.006892436 -0.00010548159 -0.0026857539
0.006896106 0.0070708864 0.007431061 0.007049304 -0.0037258056 -0.0015062052 -0.00908968 -0.0003343033
-0.0100401705 -0.007660943 0.007879593 0.0012810188 -0.005199314 0.0047899517 0.015250384 0.015524093
-0.002916928 -0.01748577 0.0057070367 -0.0011833058 -0.0018968746 0.0007874923 0.005374003 0.041211206
-0.008478527 0.002535154 0.002448062 0.0142563535 0.037749786 -0.001508083 0.02224293 -0.0019313698
-0.0027034406 0.06267224 0.0062745204 -0.0067616124 0.0015868053 0.020002807 -0.0028619217 -0.0093406625
0.0079247225 0.008162154 0.003207224 -0.009014668 0.02749875 0.0022102303 -0.0009334809 0.016138734
00000000: 02e9 59bb 8703 66bb 2135 d43b e926 973c
00000010: 6fa3 903d 41c7 273d 2870 efbb a5a5 fb39
00000020: 4604 a93c d1e9 d43b d867 a03b d927 d03c
00000030: d813 17b8 581d 68bc f616 163b 16fe adbb
00000040: bc81 8c3b 36f0 f23a c6fd aa3a d7b4 d13b
00000050: 6d53 813d 006b 5cbc 597e 82bc fb39 393d
00000060: 43c9 963c c355 4cbb dd25 553c 4280 fc3b
00000070: 9b08 853c 2aa8 9c3c 2a97 383c 669c 663c
00000080: 5ec2 083c cdd0 c73b a21d 5d3b 2f24 2cbc
00000090: c638 ee3b 229c 483b 354f a43c fd77 53bc
000000a0: de7f 503c 2710 833c d1f1 e53b 14e7 6bbb
000000b0: 5c27 f33c feac ac3b c98e 1fbc 8e57 5dbb
000000c0: b63c 19bb c47a 4cbc 8dde b33c 9986 62bb
000000d0: 9001 57bb 9e59 ee3b 243e 43bb ec81 663b
000000e0: 579a ce3b b55b 4fbd 6f92 6cbb fbd2 963c
000000f0: 83be 183c 19e9 b2bb 0dc8 933b e555 45b9
00000100: a736 0f3d a69c 99bb 21fc 70bc 02ce 353c
00000110: 6b55 8ebb 8f88 873b 9f37 873c 6b53 b33c
00000120: 07ef 353c 0fad dcbb a611 fc39 b284 dd3b
00000130: d5f0 c33c f2d9 e1bb ff35 ddb8 7903 30bb
00000140: bbf8 e13b e5b2 e73b 4280 f33b d9fd e63b
00000150: a52c 74bb dc6b c5ba e2ec 14bc 6e45 afb9
00000160: 877f 24bc a608 fbbb 6919 013c dce7 a73a
00000170: 025f aabb 07f5 9c3b bfdc 793c c458 7e3c
00000180: ee29 3fbb 513e 8fbc 1802 bb3b 2719 9bba
00000190: 8da0 f8ba b76f 4e3a 6818 b03b 15cd 283d
000001a0: 85e9 0abc d424 263b aa6f 203b 7b93 693c
000001b0: 859f 1a3d deaa c5ba ce36 b63c 0426 fdba
000001c0: 352c 31bb 4e5a 803d 7e9a cd3b 8490 ddbb
000001d0: 5afc cf3a eddc a33c 148f 3bbb 9409 19bc
000001e0: b2d6 013c 8eba 053c 4a30 523b 42b2 13bc
000001f0: 0f45 e13c 83d9 103b d8b4 74ba 6135 843c

action_model._discrete_distribution.branches.0.weight f4 [3, 128]
0.017347068 -0.003049178 0.0076429844 0.005544717 0.036352944 -0.0054412647 0.0028824112 -0.0015194139
0.002021823 -0.005619535 -0.0038946695 -0.009668176 -0.012822739 -0.005949282 0.009983423 0.0045211846
0.009062805 0.010489706 0.008892198 0.0021567333 0.026862286 -0.0072002616 -0.008740044 0.0039355867
-0.012625761 0.022075742 -0.006380881 0.007790258 -0.008518096 0.0037303423 0.00904665 -0.008463123
0.0013344239 -0.00922758 0.008923022 0.0066879275 -0.011454832 -0.0056577898 -0.013274066 0.006667045
-0.012461473 0.0057514356 0.014334571 0.011337012 -0.0031009328 -0.02088729 0.008752612 0.0055213217
0.016193923 0.012989851 0.009377396 0.009191025 0.0030306352 1.3433774e-05 -0.0036594428 -0.0012794887
-0.0037180297 0.007165896 -0.0038419897 -0.0007079688 -0.0059013516 -0.0090842815 -0.018499808 -0.015141042
-0.0021039646 0.007056146 0.0035274588 -0.0037314352 -0.0044212276 -0.0013458778 0.001906102 -0.00023418604
-0.009180906 0.0034799261 0.0015654576 0.0077665052 0.0040131365 -0.015847811 0.014785358 0.0035390859
-0.0051375753 0.007697311 -0.0050706943 -0.005641595 -0.006483863 0.0007160362 0.015073635 0.0048433463
-0.01843915 -0.014912974 0.031522688 0.003354871 -0.013503635 -0.0024946288 -0.013713353 0.025271509
0.002413016 -0.0072165886 -0.0013465184 -0.0049412474 0.010968745 -0.012860264 -0.02626871 -0.013487634
0.012926685 0.017963061 -0.0016700206 1.40162865e-05 -0.014307985 -0.022448895 0.022678547 -0.00029783873
0.009066778 -0.0068592597 -0.0043440643 -0.002054426 -0.004432192 0.0024869237 0.0076029724 -0.0067325193
-0.00047484922 -0.0026657386 -0.010361176 -0.015361172 -0.0033325066 -0.009585402 -0.0069563487 -0.00290816
-0.0015489236 -0.013852299 -0.015975738 0.0021263582 0.019794757 0.05023745 0.0036355755 -0.019010652
0.017586058 -0.02468887 0.005439568 -0.028799945 0.032752797 0.012909114 -0.013588981 0.011920695
-0.0013146123 -0.0058294106 -0.00936509 0.0026848116 0.02167796 -0.010490581 0.002459208 0.05168384
-0.023950567 0.001779509 0.0014574623 0.0004703841 -0.04440762 -0.0070708683 0.014891184 -0.0323195
0.004738562 0.0045769215 -0.0029206146 0.008761257 0.019323952 -0.002784026 -0.0071668597 0.026656132
-0.0094715515 -0.044490207 0.0022911588 0.007191282 -0.017173635 -0.015450656 -0.0058153598 0.021615587
-0.00988007 0.0048462977 -0.00354737 -0.010951997 -0.012682404 -0.005224699 0.009700463 -0.00849909
0.01875186 -0.015935743 -0.00577089 0.013591596 -0.0070017413 -0.017075432 0.033505525 -0.014650036
0.004678575 -0.007970832 0.010561611 0.011759017 -0.00085432787 -0.0013236896 0.019396506 0.03582091
-0.00599601 -0.019659264 0.011060808 -0.02107799 -0.009994999 -0.0019099697 0.018385645 0.032956187
-0.016394714 -0.029353047 0.013570719 -0.0004998212 -0.011020144 -0.021992331 0.019350868 -0.0027239255
0.011582528 0.0029901008 -0.040033054 -0.017147109 0.00048059432 0.0003329003 -0.0067063817 -0.03010734
-0.012967526 -0.009905739 -0.01945708 0.010706588 0.015540813 0.00075868785 -0.0132251335 -0.011280507
-0.0015007512 -0.0041438993 -0.025953725 0.043638736 0.012001996 0.015984949 -0.016595915 -0.009360184
-0.01951211 0.03259604 0.010341707 0.017040016 -0.019942006 0.0059474185 0.0033655418 0.010629782
0.0013692135 -0.008726694 -0.00014163362 0.002171687 0.06551694 0.007635015 0.000748412 -0.014776251
00000000: 701b 8e3c b8d4 47bb 0072 fa3b 75b0 b53b
00000010: d3e6 143d a34c b2bb d6e6 3c3b 1227 c7ba
00000020: 9080 043b 1424 b8bb b63d 7fbb 4567 1ebc
00000030: 7716 52bc 32f2 c2bb 8391 233c 7226 943b
00000040: 297c 143c 04dd 2b3c 95b0 113c fb57 0d3b
00000050: 4c0e dc3c 2cf0 ebbb 6732 0fbc 18f6 803b
00000060: 48dc 4ebc 30d8 b43c b616 d1bb 6c45 ff3b
00000070: 7c8f 0bbc c278 743b 6638 143c e9a8 0abc
00000080: d6e7 ae3a 472f 17bc de31 123c 6726 db3b
00000090: 0cad 3bbc fb64 b9bb 787b 59bc 3a77 da3b
000000a0: 352b 4cbc 8a76 bc3b 8cdb 6a3c e0be 393c
000000b0: 0539 4bbb d21b abbc 1e67 0f3c 34ec b43b
000000c0: 1ea9 843c 62d3 543c a6a3 193c f495 163c
000000d0: 9f9d 463b 9f61 6137 43d3 6fbb 84b4 a7ba
000000e0: 30aa 73bb e4cf ea3b e4c9 7bbb fb96 39ba
000000f0: 2060 c1bb 3dd6 14bc e98c 97bc 2212 78bc
00000100: abe2 09bb 3e37 e73b f02c 673b 188b 74bb
00000110: f2df 90bb 2a68 b0ba 2cd6 f93a d68f 75b9
00000120: 836b 16bc 790f 643b 0a30 cd3a 2b7e fe3b
00000130: a180 833b 45d3 81bc 493e 723c 02f0 673b
00000140: 1b59 a8bb ba39 fc3b 1128 a6bb 21dd b8bb
00000150: 9676 d4bb 60b4 3b3a 68f7 763c efb4 9e3b
00000160: b30d 97bc 8c55 74bc ef1d 013d 65dd 5b3b
00000170: 5a3e 5dbc ed7c 23bb f9ad 60bc 3206 cf3c
00000180: b123 1e3b 2279 ecbb a97d b0ba 30ea a1bb
00000190: 40b6 333c dbb3 52bc 7a31 d7bc 3dfb 5cbc
000001a0: 72ca 533c 4527 933c 98e4 daba 7e27 6b37
000001b0: 0a6c 6abc bfe6 b7bc 5cc8 b93c 3d27 9cb9
000001c0: d38c 143c a4c3 e0bb a758 8ebb 8ca3 06bb
000001d0: ec3b 91bb a8fb 223b 5b22 f93b 779c dcbb
000001e0: 2ff5 f8b9 acb3 2ebb ecc1 29bc 6dad 7bbc
000001f0: 2f66 5abb 170c 1dbc 15f2 e3bb d496 3ebb
00000200: 4005 cbba c1f4 62bc 8ddf 82bc 5f5a 0b3b
00000210: 9d28 a23c c9c5 4d3d d642 6e3b 3abc 9bbc
00000220: a310 903c 5040 cabc 673e b23b dded ebbc
00000230: cc27 063d c080 533c 51a4 5ebc 054f 433c
00000240: 124f acba a404 bfbb 0970 19bc aaf3 2f3b
00000250: fa95 b13c b0e0 2bbc aa2a 213b 6fb2 533d
00000260: fb33 c4bc 6a3e e93a 5208 bf3a e39d f639
00000270: c4e4 35bd beb2 e7bb 27fa 733c 7461 04bd
00000280: f045 9b3b 00fa 953b c867 3fbb 608b 0f3c
00000290: 444d 9e3c 3574 36bb fad7 eabb f65d da3c
000002a0: 912e 1bbc 5d3b 36bd 4427 163b d9a4 eb3b
000002b0: b9af 8cbc c024 7dbc c68e bebb 2c13 b13c
000002c0: 04e0 21bc b1cd 9e3b fe7a 68bb 0170 33bc
000002d0: dcc9 4fbc f433 abbb b1ee 1e3c c43f 0bbc
000002e0: 809d 993c ad8b 82bc bc19 bdbb 49af 5e3c
000002f0: dd6e e5bb c7e1 8bbc 173d 093d b406 70bc
00000300: bb4e 993b 1898 02bc 9b0a 2d3c e4a8 403c
00000310: f9f4 5fba a77f adba 6ce5 9e3c f2b8 123d
00000320: 2d7a c4bb 770c a1bc 6438 353c c0ab acbc
00000330: 10c2 23bc f357 faba 7e9d 963c 11fd 063d
00000340: 354e 86bc cd75 f0bc b957 5e3c 6f06 03ba
00000350: d68d 34bc 4329 b4bc b685 9e3c e383 32bb
00000360: a5c4 3d3c 91f5 433b b3f9 23bd 1878 8cbc
00000370: 47f8 fb39 1f89 ae39 35c1 dbbb aba3 f6bc
00000380: bf75 54bc ae4b 22bc 7464 9fbc af6a 2f3c
00000390: e59e 7e3c aee2 463a 3bae 58bc e0d1 38bc
000003a0: dbb4 c4ba 8cc9 87bb e89c d4bc 88be 323d
000003b0: 05a4 443c def2 823c 28f4 87bc 755b 19bc
000003c0: dcd7 9fbc 6d83 053d 4370 293c 8197 8b3c
000003d0: 6b5d a3bc 90e2 c23b 6c90 5c3b 8a28 2e3c
000003e0: 2e77 b33a 68fa 0ebc 7c83 14b9 dd52 0e3b
000003f0: bf2d 863d 262f fa3b 1431 443a 1718 72bc

action_model._discrete_distribution.branches.0.bias f4 [3]
0.0027842098 -0.0054700095 0.0029601043
00000000: 4a77 363b c43d b3bb 4ffe 413b

action_model._discrete_distribution.branches.1.weight f4 [3, 128]
-0.010077569 -0.0068288846 -0.0051072994 0.001643688 -0.0018350201 -0.0084174685 -0.0016758561 0.011650952
-0.018028935 -0.0017983577 -0.008718549 -0.018393964 0.0021148757 -0.016512696 -0.0041794227 -0.0029220935
0.006351743 -0.0057088113 -0.008536451 -0.012998776 -0.011873087 0.006899548 0.00436882 0.011083475
-0.0043803724 0.01808969 0.0027020676 -0.0037981817 0.01877819 -0.019316524 -0.01206894 0.004294667
-0.006160751 -0.0017700637 0.0011202628 0.0017131573 -0.0013205864 -0.0039274367 0.011397885 0.005146139
0.008433811 0.0013355521 -0.002987121 -0.0007891875 0.015077076 0.013650166 -0.004202089 -0.008056778
-0.0016146019 -0.0016548521 -0.014897013 -0.0023637675 0.0019140529 0.007796116 0.016961733 -0.0108151045
0.004332612 0.0036794245 -0.016755199 0.013235641 -0.0016439978 0.017262103 0.0036522294 0.0055439975
-0.028543184 -0.0009844959 0.00812494 -0.005008181 -0.0022030354 -0.008184658 0.0015556592 0.01090093
0.0015564199 0.0030558156 0.0028816827 0.008884678 0.0014825587 -0.0152163785 0.0063380846 0.009199715
-0.0016468704 -0.005756662 -0.0005686875 -0.0061602816 0.008572164 -0.0065346714 0.00013153734 -0.0022489121
0.016820401 -0.0035551358 -0.012843336 -0.00032210242 -0.011660477 -0.015474256 0.002568249 -0.03518728
0.011189969 0.007138988 0.0013574567 -0.0009170385 -0.0019410925 0.0074708047 0.00058747636 0.011529505
-0.005033176 -0.004565435 0.010975173 -0.01674664 0.023544112 0.0125495475 0.014864138 0.0013902994
0.016337497 0.0046273037 0.007723255 -0.010546305 -0.00024447983 0.005053188 0.002377937 0.012187601
0.008796649 -0.013488038 0.00049241923 0.012382865 -0.0013826779 0.0018516823 -0.010350669 -0.019703986
-0.0048639053 -0.0075620906 -0.0010685421 0.016782474 -0.019245638 0.04179195 -0.0055524763 -0.016019639
-0.04980203 -0.010284771 -0.030260306 -0.0081634745 -0.025278542 -0.05901628 -0.013110821 -0.014382371
0.013804695 -0.0024592825 -0.025354052 0.008874659 -0.04674193 -0.011199023 -0.012061538 -0.06698848
0.019171003 0.004588622 0.02603943 -0.03437438 0.011778172 -0.021385843 0.0068337834 -0.018149206
-0.005205268 0.015112091 0.0044499235 -0.0033255501 0.014479905 0.010489638 0.037091624 -0.008780471
0.030825675 0.0029383353 -0.00584676 -0.001475643 0.04758629 -0.024031293 -0.007570088 0.014244185
0.0013774999 -0.005067981 0.012924174 0.00020263165 -0.011698062 0.020612793 0.0072624846 0.0065883547
-0.021947904 -0.026831716 -0.018101463 -0.02814191 0.0066789384 -0.009507733 -0.025576733 -0.019489398
-0.04725332 -0.009183872 0.005885795 0.028173475 -0.010038164 -0.0017088165 0.020005845 0.040964104
0.0068159983 0.0005748899 -0.021204367 -0.016825981 0.031739406 0.0036544218 0.0008062251 -0.045548793
0.009497512 0.0056369435 -0.039467078 0.014717591 0.0022450758 -0.016121728 -0.009714111 0.0020877845
0.00049006083 0.0016839511 -0.031587083 -0.0008691683 -0.044004828 0.0033647441 0.039176997 0.015817598
-0.011788386 -0.014034312 0.014568232 0.0031549803 -0.0010011042 0.015753288 -0.0056172917 -0.05416441
-0.017431151 -0.015775286 0.013808465 -0.02766836 0.03221379 0.0026704744 0.035321254 -0.005395758
0.008565069 0.06657198 0.005949991 -0.01723299 -0.01019744 0.044188023 0.004286727 0.007065948
0.03919473 0.00644756 0.0067401375 -0.01049305 0.0076953885 -0.013481861 0.001346489 -0.02110994
00000000: 631c 25bc d6c4 dfbb 225b a7bb 0471 d73a
00000010: 0f85 f0ba 6ce9 09bc 66a8 dbba a2e3 3e3c
00000020: 6bb1 93bc dfb6 ebba 3fd8 0ebc f0ae 96bc
00000030: ba99 0a3b a245 87bc 8af3 88bb 9880 3fbb
00000040: 4822 d03b fb10 bbbb 78dc 0bbc d1f8 54bc
00000050: 5687 42bc 9b15 e23b 5228 8f3b 7797 353c
00000060: 3a89 8fbb d430 943c 2c15 313b eaea 78bb
00000070: b8d4 993c b03d 9ebc cebc 45bc 47ba 8c3b
00000080: 20e0 c9bb 7b01 e8ba c8d5 923a 058c e03a
00000090: 8717 adba bab1 80bb 32be 3a3c f1a0 a83b
000000a0: f82d 0a3c b10d af3a 93c3 43bb 7ae1 4eba
000000b0: d705 773c f2a4 5f3c adb1 89bb 9400 04bc
000000c0: 0da1 d3ba 9fe7 d8ba 9a12 74bc 70e9 1abb
000000d0: f5e0 fa3a 9076 ff3b 55f3 8a3c d631 31bc
000000e0: 95f8 8d3b 8022 713b 3342 89bc 4dda 583c
000000f0: 6a7b d7ba 4169 8d3c 3e5a 6f3b 6caa b53b
00000100: 65d3 e9bc 330a 81ba 781e 053c ab1b a4bb
00000110: cd60 10bb f218 06bc 43e7 cb3a d099 323c
00000120: c900 cc3a 1444 483b 9dda 3c3b 0a91 113c
00000130: 6a52 c23a 1e4e 79bc b5af cf3b 67ba 163c
00000140: cddb d7ba 62a2 bcbb f913 15ba 30dc c9bb
00000150: 4372 0c3c cc20 d6bb 49ed 0939 7c62 13bb
00000160: f0ca 893c 48fd 68bb db6c 52bc dbdf a8b9
00000170: 960b 3fbc bc87 7dbc 1150 283b 8a20 10bd
00000180: 2256 373c 2cee e93b b0ec b13a 6965 70ba
00000190: 426c feba a7cd f43b df00 1a3a 40e6 3c3c
000001a0: 57ed a4bb a599 95bb 36d1 333c 4030 89bc
000001b0: 95df c03c 9e9c 4d3c b788 733c b53a b63a
000001c0: 37d6 853c a3a0 973b 5c13 fd3b 69ca 2cbc
000001d0: 872d 80b9 3795 a53b 2ad7 1b3b 81ae 473c
000001e0: d21f 103c effc 5cbc b215 013a 80e1 4a3c
000001f0: f93a b5ba 26b4 f23a da95 29bc 416a a1bc
00000200: 6561 9fbb 6acb f7bb 530e 8cba 667b 893c
00000210: 07a9 9dbc 092e 2b3d 8cf1 b5bb 9e3b 83bc
00000220: 37fd 4bbd 7581 28bc 76e4 f7bc 18c0 05bc
00000230: f214 cfbc 0ebb 71bd c5ce 56bc 09a4 6bbc
00000240: 162d 623c ea2b 21bb 4db3 cfbc 0567 113c
00000250: 7774 3fbd 1b7c 37bc c29d 45bc 4231 89bd
00000260: 820c 9d3c 275c 963b a550 d53c 26cc 0cbd
00000270: 3cf9 403c 5d31 afbc eeed df3b a5ad 94bc
00000280: f490 aabb b498 773c aad0 913b 79f1 59bb
00000290: 203d 6d3c bbdc 2b3c 63ed 173d f7db 0fbc
000002a0: 2086 fc3c 1691 403b 2d96 bfbb 5d6a c1ba
000002b0: d7e9 423d 46dd c4bc 800e f8bb 7160 693c
000002c0: 3a8d b43a 4e11 a6bb eabf 533c 8579 5439
000002d0: 3aa9 3fbc 29dc a83c 23fa ed3b 20e3 d73b
000002e0: 17cc b3bc 30ce dbbc 8549 94bc dd89 e6bc
000002f0: ffda da3b 53c6 1bbc 4c86 d1bc 3ba8 9fbc
00000300: b38c 41bd f377 16bc a1dd c03b 0fcc e63c
00000310: 1d77 24bc 5efa dfba 4ce3 a33c fac9 273d
00000320: bd58 df3b 35b4 163a c8b4 adbc a4d6 89bc
00000330: 2e01 023d 067f 6f3b da58 533a 5f91 3abd
00000340: 749b 1b3c 1cb6 b83b 3ba8 21bd 0d22 713c
00000350: 1f22 133b b711 84bc ef27 1fbc 36d3 083b
00000360: 6d77 003a 06b8 dc3a 7561 01bd e6d8 63ba
00000370: 683e 34bd 0a83 5c3b 0f78 203d e893 813c
00000380: 1324 41bc 2cf0 65bc 98af 6e3c c9c3 4e3b
00000390: 7c37 83ba 0a0d 813c 4211 b8bb 80db 5dbd
000003a0: c6cb 8ebc 2c3b 81bc e63c 623c c2a8 e2bc
000003b0: 9bf2 033d 2003 2f3b 05ad 103d e6ce b0bb
000003c0: 8154 0c3c e456 883d 24f8 c23b 332c 8dbc
000003d0: 2a13 27bc 80fe 343d ac77 8c3b 7889 e73b
000003e0: a78a 203d 0e46 d33b 5fdc dc3b 0beb 2bbc
000003f0: 9929 fc3b 06e3 5cbc ac7c b03a c1ee acbc

action_model._discrete_distribution.branches.1.bias f4 [3]
-0.008766204 0.012823487 -0.0026682196
00000000: 20a0 0fbc 9a19 523c 4cdd 2ebb
