Assets/Cerebro/My Behavior-500004.onnx (onnx, 76114 bytes, 6 tensors)

network_body._body_endoder.seq_layers.0.weight f4 [128, 6]
00000000: 57a0 ae3e eb2b a13d 0fbd 833f a8b5 1ebe
00000010: f312 49be f28d dbbe af82 2a3e 97b6 f23e
00000020: dd24 6fbd df40 96bb 7013 50bc d468 9abd
00000030: f685 643e 1208 5bbf 6a18 08bf 154e 653e
00000040: d6c6 7bbe d549 a53d 79a8 2bbd f0bb ebbe
00000050: 0493 923e daf3 e2ba 363b 2abe c835 8c3e
00000060: c613 6e3d e753 6dbe 94d3 17be 6be7 0c3e
00000070: 539d d13e cff4 94be 207b a23e 57d9 4abe
00000080: 48c2 d1be 40b6 18bf 3dc2 02bf ffb3 f9bd
00000090: 6520 bfbe e524 833e ea5b a0be a3d3 0b3e
000000a0: a055 ee3e 757a 603f 2d6c 573e 4953 3abd
000000b0: a957 093d 13a0 783e b987 34bd e415 003f
000000c0: 3364 42bf 1ab3 0cbf 2db9 7c3e 81e5 92be
000000d0: 52dc 67be e02c a4bf fda6 7d3c af5c b43e
000000e0: 6faa b5bd ef9d c93d 888b 723e 0c4f 55be
000000f0: f516 99be 81d9 e6bd 060e 43bf 3f99 a1bd
00000100: 7709 62bf 7fbf 83be 1ff1 75be 2ff3 373c
00000110: 1c8f 9bbe 1d24 e6be ebc6 05bd 5f89 3cbf
00000120: 8871 d5be fa67 5ebd a00d 8dbe 39f6 0a3d
00000130: 5f18 d0be a562 1c3f 80c5 243f 40d3 9cbe
00000140: ddc2 993e 9145 353f 8303 893d 5316 d63d
00000150: 5205 41bf 57f3 25bf 293f 963e 2f66 92bd
00000160: 5a9e f6be 1354 423f b833 d6be 6c8a 34bf
00000170: 8095 afbe 077a 12bf db8b 84bf aad6 bc3d
00000180: 4fd1 843e bccf 1c3f 4321 e73e 49a1 9e3f
00000190: e0bb d33c 1927 013d 005d f7be 8f38 b9be
000001a0: 436b 663e 0106 593c f60d a33d 8dcb 72be
000001b0: 8d2b f6be ab89 b6be 4aa2 c63e abeb eebe
000001c0: 5bc3 8f3e 21dd 0cbf 8e6a 0e3f bd20 4ebe
000001d0: 48d3 b7bd c118 1cbf 6e07 dcbe fa25 123f
000001e0: 594f 633f f874 453e 2d81 be3e a93e 9c3e
000001f0: e418 f8bc 4d5f a6bc 6a9c 25bf 4eee 813f
00000200: 71bb dc3e 518a 1cbe 9e8a 7bbf 7ee3 5fbe
00000210: 3682 45be cdde d83c 37b1 193f 1d9d 2ebd
00000220: 4abd 093f 92df 26be d96d 20bf d1a0 253f
00000230: d85d 323e 4c90 5c3e 0343 cdbe b97f 003e
00000240: 8706 993c 7b94 223f 9208 90be 387d f23e
00000250: 57d5 863e 0351 51bd b9f2 b9be 303d bf3e
00000260: c407 813e ca3e 803c 91b4 20bd e486 82be
00000270: 12c7 193f fc7a f73e 4a0e 3c3f f294 8dbe
00000280: 2340 8b3d ab1a 0c3f f65d 0cbe 66f5 683e
00000290: ee54 cdbe f603 8d3e 3644 54be ecc0 98bc
000002a0: c666 da3e 301c 54be 8fd5 27bf 2375 cabe
000002b0: fca0 cabd a938 04be a2be bf3d ac6f 89be
000002c0: 5c3f d6be 8a6e 28bf d4f1 d23e 9635 cf3e
000002d0: 1a5a a43d 81ba 083f 6309 1fbe abcb 8b3e
000002e0: 0cab c4bd 3fd5 66bf c7d0 a43e ef48 69be
000002f0: db53 c8bc 54d1 c43e 46d4 cb3e bacd 893f
00000300: d37a c13e 494c 863f 4581 d9be a419 913d
00000310: 519f 373e 95ff a53c f5ec 47bd 3848 04bd
00000320: e539 e23e c56e 8cbe 2ad5 c33d 4afe 543f
00000330: b36d 1a3e 1397 36be c9f4 573f 871a ed3e
00000340: 36a8 4abe 6500 a1be 48a2 8fbe ad30 da3e
00000350: 7728 45be 9cb9 05bf 5584 76bd fd6f 4abe
00000360: 0ebd e1bd 165e 01bd 6f12 bbbe b9f2 453c
00000370: 881f 9dbd 98b7 7fbe c617 1c3e 2323 13bf
00000380: 2c75 953f f570 42be da13 af3e 0d9d 143f
00000390: 237d 1ebf fb96 a53e abf0 7d3d 2712 9e3e
000003a0: b3a9 62bf af53 4abf f1d7 74bf 6466 303f
000003b0: 9717 75bd eece f1be f077 0cbf 5757 a43e
000003c0: b8c4 7abe 41dd 453f 546a 21bf baf0 d9bd
000003d0: c74e 9b3d 966f 90bd c4ef 33bf adaa f2bd
000003e0: 2f02 ad3a dbda ff3e a629 a3bd 3e95 2dbc
000003f0: c9c4 81bc 4e3a b0be dd1b 2d3e 1268 de3d
0.34106705 0.07869705 1.0292071 -0.15498984 -0.19636135 -0.42881733 0.16651414 0.4740493
-0.058384765 -0.00458537 -0.012699947 -0.07539526 0.22316727 -0.8555919 -0.5316225 0.22393067
-0.24587569 0.08070723 -0.041908715 -0.46041822 0.2862779 -0.0017315105 -0.1662415 0.27384782
0.058124326 -0.23176537 -0.14826804 0.13760154 0.4094034 -0.29093024 0.31734562 -0.19809471
-0.40968537 -0.5965309 -0.51077634 -0.12192535 -0.37329403 0.25614086 -0.31320125 0.13654952
0.46549702 0.87686855 0.2103736 -0.045489583 0.033530865 0.24279813 -0.044074748 0.500334
-0.7593414 -0.5496079 0.24680014 -0.28690723 -0.2264264 -1.2826195 0.015481708 0.35226962
-0.08870398 0.098445766 0.2368604 -0.20830935 -0.29900327 -0.11271954 -0.76193273 -0.078905575
-0.8829569 -0.25732037 -0.24017762 0.011227413 -0.3038262 -0.44949427 -0.032660406 -0.7364711
-0.4168818 -0.05429838 -0.27549458 0.033926222 -0.40643594 0.6108802 0.6436386 -0.3062992
0.3003148 0.70809275 0.06690123 0.10453477 -0.75398743 -0.6482443 0.29345062 -0.07148396
-0.48167688 0.7590954 -0.41836333 -0.70523715 -0.34293747 -0.5721745 -1.035518 0.092206314
0.2594094 0.6125448 0.45142564 1.239297 0.025846422 0.031531427 -0.4831314 -0.36175963
0.22501855 0.01324606 0.07961647 -0.23710461 -0.48080102 -0.35651907 0.38795692 -0.46664175
0.28078732 -0.55024916 0.5563134 -0.20129676 -0.089758456 -0.6097527 -0.42974418 0.570892
0.8879295 0.19282901 0.37207928 0.30516556 -0.030285306 -0.020309115 -0.64691794 1.015085
0.43111756 -0.15287139 -0.9825839 -0.21864125 -0.19287953 0.026473427 0.60036033 -0.042630304
0.5380446 -0.16296223 -0.62667614 0.6469851 0.17418611 0.2153942 -0.40090188 0.12548722
0.01867987 0.63507813 -0.2813154 0.4736116 0.2633464 -0.05110265 -0.36317995 0.3735137
0.25201237 0.01565494 -0.0392347 -0.25493538 0.6006938 0.48336017 0.73459303 -0.276527
0.067993425 0.5472819 -0.13707718 0.22749862 -0.4010386 0.27542084 -0.20729145 -0.01864668
0.42656535 -0.20713878 -0.6556024 -0.39542493 -0.098939866 -0.12912239 0.09362532 -0.2684301
-0.41845214 -0.6579367 0.41200125 0.4047057 0.08024998 0.5340958 -0.15530924 0.27303824
-0.09602937 -0.9016914 0.32190534 -0.22781728 -0.024454048 0.38440955 0.3981039 1.0765908
0.3778902 1.049203 -0.42481437 0.07084969 0.17931868 0.020263473 -0.048809964 -0.032295436
0.44184795 -0.2742826 0.09562142 0.83200514 0.1508091 -0.17831068 0.8435789 0.463093
-0.1979073 -0.31445614 -0.28053498 0.42615262 -0.19253717 -0.5223634 -0.060184795 -0.19769283
-0.110223874 -0.031583868 -0.365375 0.012081795 -0.0767203 -0.24972379 0.15243444 -0.5747549
1.1676383 -0.18988402 0.34194833 0.5805214 -0.61909693 0.3234175 0.061997097 0.30873224
-0.8854019 -0.7903394 -0.95642 0.68906236 -0.05983695 -0.47228187 -0.5487051 0.32097885
-0.24489105 0.7729073 -0.6305287 -0.10641618 0.07583385 -0.07052533 -0.7028773 -0.1184896
0.0013199503 0.4997166 -0.07966928 -0.010594664 -0.015840905 -0.34419483 0.1690516 0.108596936

network_body._body_endoder.seq_layers.0.bias f4 [128]
00000000: b501 733c 278f 9ebc d0e3 d2bc a9ec 7abc
00000010: 9e8c 803b 68c8 a63b 924d 50bb d058 5e3c
00000020: d63f f03c e77e 193d f7cc 6dbd 43b0 be3c
00000030: 2bb0 dfbb a4f2 623d 7e1f 563b 3330 243d
00000040: 18b9 dabb 3d93 e8bb c11b 6abc 1a5d a2bc
00000050: 5f6e fe3a ca88 cebc 6ddb 7fbb 7ee0 9f3c
00000060: 863a 7f3c e35f 4a3c a86c 053d 689e 0c3c
00000070: 39f2 c4bb e1d6 7c3d 0931 b73b 02c4 233d
00000080: 66d0 f43c bb68 423a 3099 233d d572 0c3d
00000090: cac2 fe3c 2b06 4abd bffc 5dbd e21c 51bb
000000a0: 3826 703d 18db a13d 9292 d4bc 5e95 403d
000000b0: ec17 aebc 07e8 2d3d ada4 ee3c b00a 9cbb
000000c0: b8f3 283d 9e45 dfbc 54bf a5bb dc18 ba3c
000000d0: 8513 4eba 6aa3 c339 b678 0f3d 371f 0b3d
000000e0: 433a 063c 6e38 c13c 2acb f33c e248 b03d
000000f0: 3ce6 90bc 72fd 1d3c e393 9b3d 8188 5dba
00000100: 3e6e 2dbc 161e 3abd 35ee cd3b ab9b fd3c
00000110: f009 0c3c 544a fd3c 9a81 2bbd f184 833c
00000120: 559e 1b3d 9e42 2e3d ad62 0d3e 8baf 62bb
00000130: b8b7 02bc 83a5 a73b 534a b23c 65e1 553d
00000140: 1c97 793c 7ba3 373d 8a04 debb 9eb9 463d
00000150: 2d5d 543c f4cd 903d 3bff 593c e25a 0e3d
00000160: b654 533d 1c19 b839 7d6e 9e3c 46f5 8c3c
00000170: f906 803b 8652 2abd c5c1 8a3c d76f 303d
00000180: 93a5 053d 6c31 2a3d 9d26 7f3d 200c 613d
00000190: 1094 9d3c a1d7 2cbd 4b2f 0fbd e451 a9bb
000001a0: 2e12 17bc 5026 423d 8700 533d f7cc 1f3c
000001b0: 5b4a 5a3d c05d 03bd 052a 3f3b a23a 113d
000001c0: 0a5a 88bc c230 693c ecf5 003e 0fbf 0f3d
000001d0: bd4d 843d 95ff c4bb cc89 b93d 29c2 823d
000001e0: 0f99 233c c682 ca3d 4bec 0f3d c6bb 9a3c
000001f0: f0e1 c2ba b4dd ab3c 1580 0ebd 9f45 0a3e
0.01483195 -0.01935537 -0.025743395 -0.015315213 0.003923013 0.0050898083 -0.0031784517 0.013570979
0.029327314 0.03747454 -0.058056798 0.023277408 -0.006826421 0.05540718 0.003267258 0.04008503
-0.006674897 -0.0070976303 -0.014288844 -0.019819785 0.0019411555 -0.02521171 -0.00390407 0.019516226
0.015577918 0.012351963 0.032574326 0.008582689 -0.0060103205 0.061728362 0.0055905622 0.03998185
0.029884528 0.0007416119 0.039941013 0.0342892 0.031098742 -0.04932229 -0.054196116 -0.0031908085
0.0586302 0.07903117 -0.025948796 0.047017448 -0.021251641 0.042457607 0.029131258 -0.0047620162
0.041248053 -0.027254876 -0.0050582085 0.022716932 -0.0007861185 0.0003731505 0.03502723 0.033965316
0.008192602 0.023586478 0.029759962 0.08607651 -0.01768791 0.009642946 0.075965665 -0.00084508216
-0.010585366 -0.04543885 0.0062845 0.030958017 0.008547291 0.030919231 -0.041871645 0.016054602
0.037992794 0.042544 0.13807173 -0.0034589495 -0.007978372 0.005116166 0.021763956 0.052216906
0.015233781 0.04483364 -0.0067754434 0.048516862 0.012961668 0.070705324 0.013305481 0.03475464
0.05159446 0.00035113923 0.019339794 0.0172068 0.003907081 -0.041582607 0.0169381 0.04307541
0.032628607 0.04155104 0.062292684 0.054943204 0.01923564 -0.042197827 -0.03495721 -0.005167233
-0.009220643 0.04739982 0.051514175 0.009753457 0.053293567 -0.03207183 0.0029169333 0.035456307
-0.016644496 0.014232816 0.12593812 0.035094317 0.0646014 -0.006011913 0.09059486 0.06384689
0.0099852225 0.09888224 0.035137456 0.018888365 -0.001486836 0.02097974 -0.034790117 0.13503121

network_body._body_endoder.seq_layers.2.weight f4 [128, 128]
00000000: f9b0 1bbd def4 bd3d 0261 d63d acdc 0cbc
00000010: d45b 263d 4268 303e 3afb 5bbd 74d3 29be
00000020: c80b 823b c95a 6fbd 7af5 a73d 0fa4 6b3d
00000030: e019 ea3c 1b03 bf3d 077e f73d fe49 8c3d
00000040: 3bf9 223e 98b5 bcbc ad76 ec3d 31aa ce3d
00000050: 25e2 16bc 4c33 dabd 1aaa 2fbd 2da5 703d
00000060: 3a46 eabb e903 95bd d916 233e e365 8e3c
00000070: 2e89 09be bba3 903d be3c 32bd 012d 47bb
00000080: 4831 723d bf3b c93c f6bb 153c f9a6 533d
00000090: 49fb 02bd 6e9b 303e 111a b7bd 8aa4 4b3c
000000a0: 5323 023d d541 f23d 9f06 88be ce09 3cbd
000000b0: 727b b33b 0df6 4cbd 9873 5e3a c4d4 0dbc
000000c0: 8066 e1bd 0829 393e d480 2ebd 38e9 a43c
000000d0: 3eef 07bd 6aa9 473d 5b46 403b 73d3 30be
000000e0: 3df3 33bc 070c 203d c27c 253e 40eb 913d
000000f0: 0b85 833d 5a43 0bbe 8918 88b5 142a e6bd
00000100: 66ea f7bc 29e5 413e e3dc 8b3d ccf7 143e
00000110: 399f efbc 4b51 ea3c 2eab c33d ea96 44bd
00000120: 0be9 673d 56be 50bd 0fb6 eebd b5d6 30be
00000130: 4a7d f63d b9a3 0dbe e63a efbc 933e 833b
00000140: aeaa a0bb 98a4 993c 2c56 c73c 6280 3e3b
00000150: ca76 0ebe 1c91 01be 27b7 623c d988 14be
00000160: cf9f 50bd c4b7 f5bc cfb6 713e a511 c53a
00000170: 2cf2 3dbd 554b 833d 88cb 513d 3bce f0bc
00000180: 8141 113e d9aa 483d c3d8 c1bd f99c 2bbd
00000190: 22d6 07bc b9fd 123e f7c9 d03d f56f 883d
000001a0: 7be7 9dbd 2069 1f3e 22b2 bbbd 81b7 bc3d
000001b0: 133f 79bd 9a6e 1d3d 2f6c b1bd dd69 f3bc
000001c0: 6c40 90bc ea00 bc3d a312 13be e75b 08bd
000001d0: 64e6 6c3d 1f43 ba3c b4ab ddbb d664 c9bd
000001e0: 5267 febb bb5c 1cbb 40df 34bd 6a95 563c
000001f0: 2f3d 0e3e 7c51 153c 9362 30bd 52eb 273d
00000200: b43f 6dbc 828e 753d a44a 233d 78ab f23c
00000210: 4be8 ce3b 21d0 41bd ea6b ccbd 71ed 3c3b
00000220: 5b64 403d 9cd5 633e c07c d83b 564e d7bd
00000230: 0de7 e9bd b756 bf3d 8a99 033e 5090 84bd
00000240: 091b 8cbd 36b7 0d3e b5fe a33c 5c3d 6fbd
00000250: 5f58 d43b 688e f3bd ef7c 0cbd dbc7 383d
00000260: df8b ffbd 921e d03d 69cf 1c3d 0dcb 113e
00000270: 9ead aebd 82c5 dfbd 18c4 34bc 1a3a b8bd
00000280: 6791 f6bc 4d70 a63d 64f9 813d 7375 7c3e
00000290: 7d6e e73d c061 42be f04b 45be bc18 793d
000002a0: 1f41 353d c87c 063c c0ca dbbd 8b4c 1bbc
000002b0: d67f 8fbc b006 523c fa69 923d aac9 4fbe
000002c0: 1aee fbbd 4ad3 19be 2166 963e 11d9 10bd
000002d0: 9b84 29bc 6356 ba3d e9f0 87bd c2fb 3ebd
000002e0: 9c36 eb3d c4b3 a13c 5844 afbc 1a1f 3cbe
000002f0: 1232 20bb 7a73 fd3d 3939 023e 6af4 2fbd
00000300: 715a 283d 87f7 20bd ca0e a73d 8091 a23d
00000310: f53c 953e 158a ccba f9fb ca3d dd0e bebc
00000320: 0e1f 22be 70c8 b33d c316 24bd 50aa 97bd
00000330: c684 803d 7713 98bc a8d5 e8bd ad90 ac3d
00000340: 1d0c afbc cac4 c93d 60a4 09bd 1ec5 69bd
00000350: ea25 5bbd d3b2 dd3c 34bd af3d 1b16 06be
00000360: 8e83 763c d736 e4ba 3358 bd3d a417 1d3e
00000370: 5c5f 3c3d 6fde bebd e600 c23d de12 573b
00000380: 70e7 b53c a45f d43d 5eb0 b1bc 3ad0 ca3c
00000390: c330 be3d 8dd8 763d b981 813d a13a debc
000003a0: fea4 7bbd 5442 a8bc 3679 24be ced7 01bd
000003b0: b99b fc3d ffcc 543d 6735 4c3d d6ee 4d3c
000003c0: 57aa 09be 9958 8d3d 3f5e 313d be39 46be
000003d0: b795 30bd 3b99 d2bc 6c7b ddbd e58d c73d
000003e0: 766e b63b 7974 3f3c 4adb 2f3d c13d 18bd
000003f0: ed54 cdbc a0b6 f7bc 3117 ccbd 8b27 493d
-0.03801057 0.0927522 0.104677215 -0.008597534 0.040614918 0.17227271 -0.053706385 -0.16584569
0.0039686896 -0.05843619 0.08201118 0.057529505 0.028576791 0.09326764 0.12084585 0.068500504
0.15915386 -0.02303581 0.11546073 0.10091055 -0.0092091905 -0.10654315 -0.04288683 0.058751274
-0.007149485 -0.072761364 0.15926684 0.017382568 -0.13431236 0.07062479 -0.04351496 -0.0030391815
0.05912903 0.024564622 0.009139052 0.05167291 -0.031977925 0.17246792 -0.08940519 0.012429366
0.03177197 0.11828963 -0.26567551 -0.045907788 0.0054773623 -0.05003934 0.0008485853 -0.008656684
-0.110058784 0.18082058 -0.04260333 0.020130739 -0.033187144 0.04874555 0.002933881 -0.17268161
-0.0109832855 0.03907397 0.16160873 0.071249485 0.0642186 -0.13599911 -1.013993e-06 -0.112384945
-0.030263137 0.18935074 0.0682924 0.14547652 -0.029250728 0.028603217 0.09554134 -0.047995485
0.05661873 -0.05096277 -0.11655819 -0.17269404 0.12035616 -0.13831986 -0.02920289 0.004005262
-0.004903159 0.018755242 0.024333082 0.0029068221 -0.13912502 -0.12653011 0.013837612 -0.14505328
-0.050933655 -0.029994853 0.23604892 0.0015035166 -0.04637353 0.06410853 0.051219493 -0.029395213
0.14185144 0.048991058 -0.09465172 -0.041897748 -0.008290799 0.143546 0.10194772 0.06661979
-0.07710167 0.15567446 -0.091648355 0.09214688 -0.060851168 0.038435556 -0.086632125 -0.029713565
-0.017608844 0.09179862 -0.14362578 -0.03329077 0.057836905 0.022737084 -0.0067648534 -0.09833686
-0.0077637816 -0.0023858983 -0.04415822 0.0130971465 0.13890527 0.009113666 -0.043062758 0.040995903
-0.01448052 0.05995036 0.039866105 0.029622778 0.0063143126 -0.047317628 -0.099815205 0.002882805
0.046970706 0.22249454 0.0066066682 -0.10512988 -0.114210226 0.093427114 0.12851539 -0.06472838
-0.06841094 0.1383942 0.020018915 -0.058408126 0.006480261 -0.11892396 -0.034298833 0.045112472
-0.1247785 0.10162081 0.03828374 0.14237614 -0.085292086 -0.109263435 -0.0110330805 -0.08995457
-0.03009863 0.081268884 0.063463956 0.24654178 0.11300371 -0.18982601 -0.19267249 0.060814604
0.044251557 0.008208461 -0.10732031 -0.0094786985 -0.017517012 0.012818977 0.0714912 -0.20291772
-0.12301274 -0.15022007 0.29374793 -0.03536326 -0.010346557 0.09098508 -0.06637747 -0.046626814
0.11485025 0.01973904 -0.021394894 -0.1837124 -0.0024443907 0.12375541 0.12717141 -0.0429577
0.041101877 -0.03929856 0.08157118 0.07937908 0.2914807 -0.0015605116 0.09911341 -0.023200447
-0.15832159 0.08778465 -0.04006077 -0.074055314 0.062753245 -0.018563969 -0.11368877 0.08426032
-0.02136808 0.09851988 -0.033604026 -0.05707275 -0.053502955 0.02706281 0.085810095 -0.1309437
0.0150460135 -0.0017411363 0.09245338 0.1534105 0.04598938 -0.093197696 0.094728276 0.0032817642
0.022205085 0.103698045 -0.021690544 0.024757493 0.09286644 0.060265113 0.06323571 -0.027127566
-0.061436646 -0.02053944 -0.16061863 -0.031699948 0.12334389 0.051953312 0.049855616 0.01256915
-0.13443886 0.06901664 0.04330277 -0.19357964 -0.04311153 -0.025707832 -0.108145565 0.09743861
0.005567367 0.011685484 0.04293374 -0.037168268 -0.02506491 -0.03023845 -0.09965361 0.049109977

network_body._body_endoder.seq_layers.2.bias f4 [128]
00000000: 1d38 bfbc 2e49 d9bb aeab b93c f020 0ebd
00000010: e29c b23b 33d7 b7bb 0fb2 00bc fdd7 3c3b
00000020: 781e 83bc 4e25 1d3c 7c1b 933c 94ba fcbc
00000030: d128 9d3c 549a aa3c 6efd bcbc fd5b 283d
00000040: a336 e63c 3cad 233d 1983 0fbb 5f4a 4c3b
00000050: bc68 c5bc b5bd 253c 570b 1f3c 6400 e43c
00000060: ca8c b43c 9661 dc3c f31d d6bc a09a 353d
00000070: e901 ac3c 1a28 433d 78fd e03a 3346 ad3c
00000080: 0326 bc3b 9606 92bc a7dc 7bbc f1d2 183d
00000090: 2716 0b3d ea7f b63c c7b5 5f3d f907 f63d
000000a0: a37c ad3d 5d31 26bc a56e a73c 89c0 513d
000000b0: a7f8 2cbc 81a1 9d3c e51c 063b 317d 933c
000000c0: 9da6 adba 1418 033d a1a4 853c f82e 183d
000000d0: d90b ac3d 1123 943c 7cdd 303d 3a21 f63c
000000e0: 3adf 1d3d 3a4b 19bc e148 793b eaf4 d9bc
000000f0: c042 263d b0ce 6e3c 33c9 823c b890 203d
00000100: 9921 243d 1f8b e9bc cb9f 4c3c e6dd 993b
00000110: 1fa5 cc3c f763 fcbb ec3f db3c 564f cbbc
00000120: 6aa6 063d 9bbe d7bc da9e 813d 5570 ac3c
00000130: ab3d 0a3d 7119 e63c 5fe4 29bc 5db1 e7bc
00000140: aa02 893d 428b 073d 4ad3 ea3c 8f59 fcbc
00000150: 3e53 38bd 9b74 b03c dc8d bebb 382d 06ba
00000160: 4297 223d 09eb 86bc e288 3ebc b2ff cdbc
00000170: c70f 063d 9354 363c f780 5cb8 80cd 0d3d
00000180: 9c2a 123c 0fe7 d43c 5f4a ccbc e868 27bb
00000190: be5a 8b3c c5f4 8d3c 01d5 2cbc c283 083d
000001a0: 76ce 84bd 65e0 0abd 6777 193b 0fb8 223d
000001b0: 9603 2d3c e400 26bc 82b3 103c 962b 98bc
000001c0: 09c5 c83c f896 2a3d 270e 843d ea55 ac3c
000001d0: 8b51 513c 7e00 e23c 9f47 243c 1c6b 1e3c
000001e0: e9a5 983c c1a5 c93c 759a b83c 88ee aa3c
000001f0: c894 2c3c 9513 b4bc 5b52 ce3b 7557 91bb
-0.023342187 -0.006631038 0.022664871 -0.03469938 0.005450831 -0.0056103705 -0.0078549525 0.0028815262
-0.01600574 0.009591414 0.017957442 -0.030850686 0.019184502 0.020825543 -0.023070063 0.04110335
0.028102225 0.03996013 -0.0021898209 0.0031172258 -0.024097793 0.01011603 0.0097072935 0.027832218
0.02203979 0.026902001 -0.026137328 0.044336915 0.020997005 0.047645666 0.0017165383 0.021151638
0.005741836 -0.017825406 -0.015372432 0.037310544 0.033956673 0.022277791 0.054616716 0.120132394
0.08471038 -0.010143605 0.020438502 0.051209006 -0.01055733 0.01924205 0.0020464 0.018004032
-0.0013248507 0.032005385 0.016313853 0.037154168 0.08400697 0.018083127 0.043179974 0.03004514
0.038542964 -0.009356314 0.0038037824 -0.026606042 0.040591 0.014575645 0.01596508 0.039200515
0.040071104 -0.02850872 0.0124892695 0.004695642 0.02498108 -0.0077023464 0.026763879 -0.024818104
0.03287355 -0.026336005 0.06329127 0.021049658 0.033750217 0.028088303 -0.010369389 -0.028282816
0.06689961 0.03309179 0.028665204 -0.030804424 -0.04500126 0.021539977 -0.005815251 -0.00051184325
0.039695032 -0.016469495 -0.011629315 -0.02514634 0.03272989 0.0111285625 -5.2572195e-05 0.03461981
0.008921292 0.025989084 -0.024937807 -0.0025544707 0.017011043 0.01732863 -0.010548831 0.03332878
-0.06484692 -0.033905406 0.0023417117 0.039726313 0.010559937 -0.010132048 0.0088318605 -0.01857547
0.024508016 0.04164788 0.06448012 0.02103706 0.012775789 0.027588125 0.010026841 0.009669092
0.0186338 0.02461517 0.022534588 0.020865694 0.010533519 -0.021981994 0.0062964386 -0.0044354745

action_model._discrete_distribution.branches.0.weight f4 [3, 128]
00000000: 6f32 3abb 3927 003c 95ec 2bbc d9bb 5bbb
00000010: 4bdc 2b3b 49e9 95bb baee 183c 4280 cc3b
00000020: b16b 483c a387 9dbb faf3 bfbb b887 e03a
00000030: dc8a 9ebc 307d 1d3b faec 693c 05c9 21bc
00000040: 688a ee3b 5857 8d3a c0fd 993c 528c ee3c
00000050: c3ea 76ba 3b59 1a3c 6239 cc3a 7eb8 dcbc
00000060: f644 1bbc b7cd 543c 4cc8 1c3c fce5 023c
00000070: 3718 31bc 2ecd fcba 6675 913b 1e4f 0bbc
00000080: 8814 3abc 3040 233c b623 c53a ad2c 6fbb
00000090: 105b 1a3c a65b c0bb 078b 93bc ff5d bebc
000000a0: b11b 1dbc 8937 923c 76ff 673c 514b 2b3d
000000b0: 31d7 10bb 37d0 67bc ea46 663b 8139 49bb
000000c0: bd6e 463b e858 c8bc 2e60 14bc c021 58ba
000000d0: fba0 bbbc 539d 103b 1b2a 83bc fb0b 30bb
000000e0: b043 a5bb 518b 333c b2a2 e2bb e417 d33b
000000f0: ffcc a83c 3671 1c3b e1df 76bb b44d 3dbc
00000100: 907e 87bb cf88 0f3c a05d 923a c45e 07bb
00000110: b31f e2b9 f019 21bb 1ca6 5dbc 6a84 b63d
00000120: d899 92bc 82ea 353c bb7f 873a 3365 8cbb
00000130: bf0c b2bc 6c18 fabb 8bb5 3fba 3c04 d33b
00000140: 830f 06bc 5afc 513a 3df6 80bc f172 d339
00000150: 2576 663c 7fec 6ebc 3f1b 1b3a 4547 b43b
00000160: 913d e43b e9e4 483b b1b3 29bb b904 883c
00000170: b391 f4bb 2984 89bb a7b1 5a3c 55d1 64bc
00000180: 9009 0bbb 8d14 b2bb 0272 273b 8585 a63b
00000190: ad8c 983b 7961 12bc 24e1 fd3b 412d 1dbc
000001a0: cf75 943d 6c07 613c 61d4 95bb c861 3abc
000001b0: 892a 14bc 6bc5 0abc e03c ab3b ddf4 5a3c
000001c0: 4ac6 46bc be70 a8bc e200 1e3b ab8b 903b
000001d0: 583c 86bc c750 90bc 410d b53a 4bf1 02bc
000001e0: 646b 33bc c65b b8bc ffa5 45bb cc3d f7bb
000001f0: ee2a ad39 6703 883b 7861 863b 4a9f ab3b
00000200: 9405 14bc 125a a03c 5c2f 74bb 37f4 55bc
00000210: dab9 603c 4aea 0ebd b4ac ceba a053 f8bc
00000220: 8fbb ebb9 9266 b43c 6a9a be3c f131 313c
00000230: 4e0e 92bb b7bc 123d ef2d 37bc 3ca4 0dbd
00000240: eff9 58bd 2a80 9b3c b57b e2bc e231 9abd
00000250: 5a6b 4cbc cad3 e83c 1596 7a3c d165 68ba
00000260: b009 ccbc 086d 4abd f72a df3b ba0f 2fbd
00000270: 96e7 283c d7a6 8cbd 00da 383c e1b0 89bc
00000280: 4259 debc 445d ccbc 3da1 c8bc 78ef 533c
00000290: e001 b7bc 36d7 7c3c 5c74 363c 3905 ddbd
000002a0: f775 bb3d 17d3 b6bc 1a8e 58bd 13b3 d0bd
000002b0: 9e3c fa3b 3905 1d3d ad7a cd3c 27c4 fb3b
000002c0: 1d75 1f3c ab5c e63c 6ba2 28bb b867 dc3b
000002d0: be2b 98bd 793e 133c 74ba 153d dcd2 c93c
000002e0: 4f39 8fbc f0a5 01bd 4962 413b d10f 4bbb
000002f0: d465 8e3d c6d3 afbc 3396 7a3c 14cc 32bc
00000300: 294f 3bbc c927 50ba aadc f4bc 1aac 973c
00000310: 5591 cb3c 6984 06bc 890b 0abc 551a 3ebd
00000320: 29ae 8c3b 2f6e e8bb cae0 b9bd 228f 333c
00000330: bcf0 db3c 0c44 a2bb 43c3 5bbb 87d3 33bc
00000340: 18d7 b53d ffab aabc 28a6 86ba b83e bb3a
00000350: 337c 863a b3cd da3b 7289 3bbc 433c e43c
00000360: ea74 89bd c4c4 94bc 1f99 e73c abc7 b0b9
00000370: cdb3 b23b 4c72 203c 971c debc b167 623d
00000380: 0f33 febc 37bd 3bbd 1bfe 0a3b 6d59 a7bc
00000390: 6248 8b3c 1145 b83c 6d12 7fbc 65f1 a3bc
000003a0: 9abe d4bd b4d4 973b 2a43 a3ba ebae 3bbc
000003b0: 7d2c 7fbc 5410 103c ccf7 a33c 8595 79bc
000003c0: 1195 763b a6f5 42bd 22b1 3abd ab8d d33c
000003d0: fcab 163c a46d 993c eb29 453c 72af abbb
000003e0: 429e 863c 4318 5e3d b71f cebb f434 79bc
000003f0: 75d8 67bd 9878 a33a 6b02 afbb f433 83bd
-0.0028411408 0.007821851 -0.010493417 -0.0033528714 0.0026223834 -0.004574929 0.009334261 0.0062408755
0.012232707 -0.004807429 -0.0058579417 0.0017130291 -0.019353323 0.0024030916 0.014277691 -0.009874587
0.007279683 0.0010783477 0.018797755 0.029119644 -0.00094191375 0.009420688 0.0015581066 -0.026943441
-0.009476891 0.012988499 0.009569239 0.007989403 -0.010808996 -0.0019287223 0.004439044 -0.00850275
-0.011357434 0.009964034 0.001504055 -0.0036495135 0.009421125 -0.0058703003 -0.01801063 -0.02323818
-0.009589122 0.017848747 0.014160028 0.041819874 -0.002210092 -0.014148763 0.0035137483 -0.003070444
0.0030278408 -0.024456456 -0.009056134 -0.0008244775 -0.02290391 0.0022066429 -0.016011288 -0.002686261
-0.0050434694 0.010958509 -0.0069163674 0.006442057 0.020605562 0.002387119 -0.0037670063 -0.01155417
-0.0041349605 0.008760645 0.0011166818 -0.002065585 -0.00043129697 -0.002458211 -0.013528373 0.08911975
-0.017895624 0.011103274 0.0010337749 -0.004284525 -0.021734593 -0.007632306 -0.0007313124 0.0064397138
-0.008182409 0.00080103206 -0.015742416 0.00040330694 0.014066254 -0.014582752 0.0005916841 0.00550166
0.006965347 0.003065402 -0.0025894458 0.016603814 -0.0074636578 -0.004196663 0.01334802 -0.013965924
-0.0021215416 -0.0054345788 0.0025550132 0.0050818347 0.0046554417 -0.008934372 0.007747786 -0.009593309
0.07249033 0.01373468 -0.0045724367 -0.011375852 -0.009043344 -0.00846992 0.0052257627 0.013364044
-0.012132237 -0.020561572 0.0024109413 0.004411181 -0.016386196 -0.017616643 0.0013813154 -0.007992099
-0.010950897 -0.022504698 -0.0030158756 -0.0075452086 0.00033029116 0.004150796 0.0041009746 0.0052374946
-0.009034533 0.019574199 -0.0037259674 -0.013058714 0.013716185 -0.034891404 -0.0015768022 -0.030313313
-0.00044962435 0.022021566 0.02326699 0.01081513 -0.0044572717 0.035824504 -0.011180385 -0.034580454
-0.05297273 0.018982012 -0.027646879 -0.07529046 -0.0124767665 0.028421301 0.015294571 -0.00088652695
-0.024906963 -0.049420387 0.0068105417 -0.042739607 0.010309121 -0.0686776 0.011282444 -0.016807975
-0.02714217 -0.024946816 -0.024490947 0.012935512 -0.022339761 0.01543217 0.011136141 -0.10792012
0.091533594 -0.022317452 -0.052869894 -0.10190406 0.0076366207 0.03833506 0.02508291 0.0076832953
0.009732512 0.02812036 -0.0025731574 0.0067262314 -0.07430218 0.008987063 0.03655477 0.024636678
-0.017483382 -0.03165239 0.0029508045 -0.003098477 0.06953016 -0.021463286 0.015294599 -0.010912914
-0.0114324475 -0.0007940499 -0.029890377 0.018514682 0.024849573 -0.00821028 -0.008425602 -0.04641183
0.0042932224 -0.007093213 -0.09076078 0.0109594185 0.02684819 -0.0049519595 -0.0033533133 -0.010975725
0.088789165 -0.020833967 -0.0010272907 0.0014285659 0.0010260403 0.0066773533 -0.011446344 0.027860766
-0.06711753 -0.018160231 0.028271256 -0.000337181 0.005453563 0.0097928755 -0.027113242 0.05527467
-0.031030206 -0.045834746 0.0021208588 -0.020428384 0.017002288 0.02249387 -0.015568358 -0.020012567
-0.10387917 0.0046335105 -0.001245593 -0.011455278 -0.015574572 0.008792955 0.02001562 -0.015233402
0.0037625472 -0.04759755 -0.045579083 0.025824388 0.009196278 0.018729039 0.01203392 -0.0052394206
0.016432885 0.054222357 -0.006290402 -0.015210379 -0.056602914 0.0012471853 -0.0053408644 -0.06406394

action_model._discrete_distribution.branches.0.bias f4 [3]
00000000: 58e6 06bd bf2e 643c cf5b 8b3c
-0.032934517 0.013927161 0.017011551
